Src/behaviours/vision/models/lstm_30x30_20.onnx (onnx, 83393 bytes, 8 tensors)

sequential_46/lstm_7/lstm_cell_17/split_1/ReadVariableOp/resource:0 f4 [120]
0.27258635 0.32892764 0.1643956 0.10735661 0.3192277 0.20769879 0.18795574 0.21182805
0.30295908 0.061410364 0.20133264 0.16330957 0.17535959 0.09068551 0.36286572 0.35772714
0.19570018 0.24595837 0.16994646 0.2932555 0.16747896 0.23755296 0.28296372 0.14738502
0.22101825 0.2567274 0.105553135 0.22496413 0.2699179 0.3598322 1.1885415 1.3101381
1.0397732 1.1380267 1.3817667 1.1442487 1.2634373 1.2393922 1.2104354 1.0995641
1.2929422 1.3254403 1.1073772 1.1293501 1.2941544 1.2476873 1.1481037 1.1215484
1.1934403 1.1838338 1.2190435 1.2831283 1.3042355 1.2467678 1.2440988 1.1889702
1.246644 1.2132986 1.2538342 1.1989812 -0.014813835 0.018259447 0.009489029 0.013737915
0.04836297 -0.049310036 -0.031822808 -0.034946736 -0.055479933 0.046311226 -0.026818523 0.016670043
-0.017104663 0.004373922 -0.07216441 0.034287535 -0.057219796 -0.023269268 -0.050091594 -0.04103451
-0.0072704833 -0.037065256 0.002137219 0.038876493 -0.052658617 -0.045410044 -0.009294028 -0.022428345
-0.03943967 0.01834607 0.4179878 0.45834947 0.46716598 0.31849775 0.7905336 0.44160867
0.28309494 0.34733325 0.27203694 0.25984755 0.24917512 0.31681645 0.36966297 0.22038056
0.4218547 0.35380375 0.49887592 0.4612028 0.38643122 0.46936992 0.3828726 0.34217224
0.46524337 0.35040078 0.39471617 0.35713992 0.25208047 0.3018347 0.47187915 0.5470079
00000000: 7090 8b3e 3469 a83e 5257 283e c8dd db3d
00000010: d071 a33e feae 543e 7877 403e 74e9 583e
00000020: 741d 9b3e 6f89 7b3d 252a 4e3e a03a 273e
00000030: 7791 333e 53b9 b93d 89c9 b93e 0328 b73e
00000040: a165 483e 83dc 7b3e 7206 2e3e 9625 963e
00000050: 9b7f 2b3e 1541 733e 9fe0 903e 19ec 163e
00000060: 9c52 623e c671 833e 3e2c d83d ff5c 663e
00000070: ae32 8a3e ed3b b83e 2122 983f 9bb2 a73f
00000080: 4a17 853f dcaa 913f bbdd b03f be76 923f
00000090: 50b8 a13f 67a4 9e3f 8cef 9a3f 84be 8c3f
000000a0: 217f a53f 07a8 a93f 89be 8d3f 8b8e 903f
000000b0: daa6 a53f 38b4 9f3f 10f5 923f e68e 8f3f
000000c0: a7c2 983f de87 973f 9e09 9c3f 8c3d a43f
000000d0: 30f1 a63f 1696 9f3f a13e 9f3f 2d30 983f
000000e0: 0892 9f3f 5e4d 9b3f a47d a03f 3778 993f
000000f0: bab5 72bc d694 953c df77 1b3c fe14 613c
00000100: 4018 463d 52f9 49bd a258 02bd 4f24 0fbd
00000110: ed3e 63bd d7b0 3d3d 85b2 dbbc 9d8f 883c
00000120: 141f 8cbc 1e53 8f3b efca 93bd 1671 0c3d
00000130: 4e5f 6abd 319f bebc d82c 4dbd cd13 28bd
00000140: 3c3d eebb bdd1 17bd 9610 0c3b f53c 1f3d
00000150: 90b0 57bd e2ff 39bd fb45 18bc a6bb b7bc
00000160: 7e8b 21bd 7f4a 963c 7f02 d63e c8ac ea3e
00000170: 6130 ef3e 2312 a33e 6960 4a3f 881a e23e
00000180: d2f1 903e aad5 b13e 6d48 8b3e bd0a 853e
00000190: c327 7f3e c435 a23e 7744 bd3e 71ab 613e
000001a0: 57fd d73e c425 b53e aa6c ff3e c622 ec3e
000001b0: 50da c53e 4151 f03e e107 c43e 3331 af3e
000001c0: 6134 ee3e bb67 b33e 3d18 ca3e 0bdb b63e
000001d0: b110 813e 148a 9a3e 259a f13e b608 0c3f

sequential_46/lstm_7/lstm_cell_17/split/ReadVariableOp/resource:0 f4 [30, 120]
-0.0021920502 -0.0014510916 -0.012642885 -0.01175682 -0.009331191 -0.019131476 0.004919311 -0.019533081
0.0019941241 -0.007569514 0.02161513 0.0070917048 0.0009306216 -0.0023656024 -0.010007634 -0.003269496
-0.013709247 -0.02247905 -0.025118042 -0.02359486 0.026450014 -0.0026746772 0.00013751419 -0.009387859
0.008407844 -0.0024836194 0.0006271545 -0.036316995 -0.0050029443 -0.009391243 -0.029533055 0.032147583
-0.026890973 -0.015791206 -0.03134107 -0.012820625 0.009981963 -0.020830775 -0.017308472 -0.024360461
-0.0050265705 -0.00300649 0.00424039 0.0158594 0.025742132 -0.046557996 0.017196285 0.027834097
-0.0058768024 -0.017095696 -0.0054780785 -0.017087895 -0.0040435176 -0.00495509 0.0053250655 -0.01085635
0.000116361545 -0.04065243 -0.03063662 -0.039722376 0.14803994 -0.062458873 -0.0152196195 0.033103183
-0.02116281 0.027828429 0.1380433 -0.15923741 0.2510073 0.03793629 0.006025824 -0.06086642
-0.13195156 -0.29223213 -0.030097878 0.04059848 -0.010822197 -0.0645699 0.058778618 0.0185327
-0.0598095 -0.03916856 -0.20632982 0.0128144305 -0.05585132 0.1491318 0.010117673 0.080536485
0.058994137 -0.18178447 -0.00936736 -0.019355852 -0.013181074 -0.03844203 -0.03863611 -0.044999495
-0.013933979 -0.06323777 0.012919825 -0.027574318 -0.0012417577 0.009694471 -0.040854555 -0.014616566
0.018619074 -0.008252752 -0.040132754 -0.0443962 -0.035899002 -0.04824633 -0.0061411387 -0.004591471
-0.015437794 0.007117888 0.009123674 -0.046677694 -0.027464094 -0.049109146 -0.03955844 -0.027050823
-0.016261728 -0.019912519 -0.0053077578 0.0130561795 -0.012557222 0.009689452 -0.011324516 -0.00018437236
-0.0011409237 -0.012863565 -0.025767833 0.010787973 0.040043194 0.0032801018 -0.019867623 -0.0049490486
-0.010931542 -0.043724153 0.018048536 0.005806308 0.012427454 -0.010210971 0.022944884 -0.00990787
0.0019217236 0.032973673 -0.016948884 -0.011546194 0.022167392 0.0045896014 -0.041326817 -0.030920839
0.005174067 0.00033213274 5.8488044e-05 0.029096348 -0.022503234 -0.004888258 -0.034428358 -0.0015280674
-0.008405111 -0.0027030776 0.055983197 -0.018450784 -0.062475447 -0.04847714 -0.02725363 -0.079159945
0.009653793 -0.0077837654 -0.030847427 -0.015665842 0.010080024 -0.017195333 0.025754422 0.016352033
-0.031009769 0.0031039258 0.06612155 -0.056400854 -0.112762935 0.24376296 0.166408 -0.015285711
0.23753269 0.27175528 0.15748988 -0.059879124 0.19091915 -0.17198515 -0.2841644 0.07927466
-0.17604533 -0.15282823 -0.1298531 -0.016804503 0.11281953 0.2760768 -0.04937596 0.022236807
-0.13052101 0.13513511 0.019904014 -0.08795343 -0.035044767 0.050387166 0.08095881 0.12672953
-0.3630578 0.18451759 -0.021206181 -0.06822287 0.005193596 0.003374959 -0.0031579493 0.009059802
-0.0062855445 0.0037109642 0.021944638 -0.022322226 0.010128653 0.030337285 0.054720167 0.022613933
-0.23926747 -0.040167104 0.00045610697 -0.045654964 0.020025995 0.05502461 -0.00032208188 -0.12456327
-0.00077643286 -0.026211184 0.011350046 0.07499975 -0.054763976 -0.012758282 0.054206513 0.0022995803
-0.0047189277 0.025006918 0.02837487 -0.009663994 0.022966376 0.009744329 0.018308464 0.010772006
0.007401739 0.010304292 0.016495675 0.011954932 0.023068715 0.004967311 0.0016053949 0.021031791
00000000: 80a8 0fbb 8e32 beba 1a24 4fbc ad9f 40bc
00000010: dae1 18bc 9db9 9cbc 2c32 a13b d703 a0bc
00000020: daaf 023b b009 f8bb 3712 b13c 8861 e83b
00000030: f5f4 733a 3908 1bbb 0ff7 23bc 0a45 56bb
00000040: c09c 60bc fc25 b8bc 5ac4 cdbc 024a c1bc
00000050: b3ad d83c a349 2fbb af31 1039 89cf 19bc
00000060: 0ec1 093c 38c4 22bb a067 243a 21c1 14bd
00000070: bdef a3bb badd 19bc 4eef f1bc 2fad 033d
00000080: 754a dcbc 8f5c 81bc 7e5f 00bd 990d 52bc
00000090: 638b 233c 4da5 aabc 7fca 8dbc 978f c7bc
000000a0: eeb5 a4bb 8808 45bb f8f2 8a3b 93eb 813c
000000b0: 2ae1 d23c 99b3 3ebd 39df 8c3c 5504 e43c
000000c0: 3192 c0bb 460c 8cbc 7481 b3bb eafb 8bbc
000000d0: 7c7f 84bb 4f5e a2bb e37d ae3b d5de 31bc
000000e0: 2107 f438 2a83 26bd a6f9 fabc eeb3 22bd
000000f0: c897 173e e0d4 7fbd b65b 79bc 3497 073d
00000100: a15d adbc 72f8 e33c 395b 0d3e 220f 23be
00000110: 0784 803e 1563 1b3d 4774 c53b 114f 79bd
00000120: 4f1e 07be 739f 95be d38f f6bc 974a 263d
00000130: 964f 31bc 393d 84bd d9c1 703d e4d1 973c
00000140: cefa 74bd 366f 20bd 2048 53be 9ef3 513c
00000150: 5bc4 64bd 02b6 183e 99c4 253c 50f0 a43d
00000160: d6a3 713d b525 3abe 8e79 19bc 2a90 9ebc
00000170: 6ef5 57bc 6475 1dbd e640 1ebd 6451 38bd
00000180: 584b 64bc ce82 81bd acad 533c 89e3 e1bc
00000190: 79c2 a2ba 8fd5 1e3c 1b57 27bd 527a 6fbc
000001a0: 0787 983c 8d36 07bc 3e62 24bd cad8 35bd
000001b0: d50a 13bd f29d 45bd 9b3b c9bb 0d74 96bb
000001c0: cdee 7cbc 2c3d e93b 767b 153c 1c31 3fbd
000001d0: 61fc e0bc ac26 49bd 0808 22bd b099 ddbc
000001e0: 5137 85bc 941f a3bc b3ec adbb 96e9 553c
000001f0: cebc 4dbc 82c0 1e3c 768a 39bc 1454 41b9
00000200: 0c8b 95ba b4c1 52bc 1017 d3bc 0ac0 303c
00000210: 5504 243d faf6 563b 6dc1 a2bc a12b a2bb
00000220: 361a 33bc 1918 33bd 86da 933c d742 be3b
00000230: 859c 4b3c eb4b 27bc e9f6 bb3c 9e54 22bc
00000240: 58e2 fb3a 670f 073d 63d8 8abc 3f2c 3dbc
00000250: 6498 b53c 5e64 963b 4f46 29bd b34d fdbc
00000260: 388b a93b 1a22 ae39 0f51 7538 775b ee3c
00000270: b458 b8bc ae2d a0bb c004 0dbd 6f49 c8ba
00000280: 97b5 09bc 1e26 31bb a34e 653d 1926 97bc
00000290: 41e6 7fbd f78f 46bd 0143 dfbc 9c1e a2bd
000002a0: f12a 1e3c f50e ffbb beb3 fcbc a755 80bc
000002b0: af26 253c 3add 8cbc f0fa d23c b3f4 853c
000002c0: 3308 febc 3c6b 4b3b bc6a 873d 9504 67bd
000002d0: 41f0 e6bd ff9c 793e dc66 2a3e eb70 7abc
000002e0: c53b 733e 8223 8b3e 0745 213e d043 75bd
000002f0: 4f80 433e e01c 30be ff7d 91be c15a a23d
00000300: 3a45 34be 017f 1cbe 36f8 04be 99a9 89bc
00000310: ed0d e73d f059 8d3e 723e 4abd f729 b63c
00000320: 4da7 05be dc60 0a3e be0d a33c ee20 b4bd
00000330: 1a8b 0fbd c662 4e3d bccd a53d 63c5 013e
00000340: b6e2 b9be 2ef2 3c3e 96b8 adbc 6fb8 8bbd
00000350: 0a2f aa3b 6b2e 5d3b 99f5 4ebb 906f 143c
00000360: f8f6 cdbb a633 733b 3ec5 b33c 1add b6bc
00000370: a6f2 253c e685 f83c 4122 603d db40 b93c
00000380: 8802 75be 4386 24bd a421 ef39 b300 3bbd
00000390: 8e0d a43c 7c61 613d 19dd a8b9 071b ffbd
000003a0: 8789 4bba d6b8 d6bc 8bf5 393c 7899 993d
000003b0: 3150 60bd 1d08 51bc a607 5e3d 8eb4 163b
000003c0: 3ca1 9abb 4fdb cc3c 6a72 e83c bb55 1ebc
000003d0: fb23 bc3c aea6 1f3c a2fb 953c 117d 303c
000003e0: 498a f23b 55d3 283c f021 873c 9ede 433c
000003f0: 9afa bc3c d3c4 a23b 1d6c d23a dd4a ac3c

sequential_46/lstm_7/lstm_cell_17/ReadVariableOp/resource:0 f4 [30, 120]
-0.16235651 -0.14920162 0.034738436 -0.16838014 0.007198199 -0.5617083 0.14815706 0.0018770692
0.21102941 0.13829252 0.032753177 -0.11672104 -0.31936502 0.119005725 0.10989514 -0.07069244
-0.4255039 -0.061918274 -0.072269015 0.075522356 -0.19680893 -0.06888885 -0.4409857 0.03159321
0.14258318 -0.3233195 -0.24542671 -0.0661097 -0.20569375 0.21515709 -0.1604354 -0.17684494
0.1576164 -0.051918373 0.06338112 -0.39918944 0.03224487 0.011567245 0.00034643267 -0.06270462
0.12012668 -0.010242832 -0.06391974 0.4368593 0.2895935 -0.13142021 -0.025100823 -0.28023186
-0.1427478 -0.18644853 -0.059307415 -0.02557081 -0.18191452 0.14011902 0.0053183716 -0.24591179
-0.30373883 -0.2297266 0.032893438 0.042884246 -0.045815185 0.049042553 0.029553551 0.09464495
-0.15897925 0.028651081 0.05801295 0.010286418 0.104489654 -0.056022353 0.10601818 -0.10163245
-0.12657656 0.04107856 0.078029834 -0.017904129 0.015301815 -0.106683046 -0.038125817 0.027520254
-0.08215044 0.01781899 -0.03000803 0.039222714 0.08288493 0.12519151 0.030611768 0.008674175
-0.00812966 -0.19711739 -0.19376984 -0.2629148 0.2006136 -0.13041858 0.07609989 -0.4525488
0.2601708 0.013182852 0.14382558 -0.026743567 0.44513002 -0.03464063 -0.288874 0.33859232
0.12259471 -0.065513745 -0.41414028 -0.24483356 -0.18268584 -0.23762594 -0.1933319 -0.07999717
-0.039366573 -0.23824574 0.3421374 -0.36368984 -0.23430236 -0.17100643 -0.037569605 0.17850667
-0.45696795 0.10219139 -0.22910321 -0.20461985 0.033211783 -0.3000964 -0.15856743 0.13279882
-0.44857773 0.08595272 -0.23758633 0.0104409475 0.027067699 -0.053241543 0.06704417 0.069375835
0.10039124 0.039487388 -0.0058518043 -0.20690717 -0.08116893 -0.17988177 -0.15390588 0.044444893
-0.33761507 -0.27827078 -0.31017667 -0.21312392 -0.08165364 -0.34574962 -0.12737837 -0.18235216
-0.14871559 0.09463533 0.06713273 0.050496962 -0.36779025 -0.2703204 -0.09608308 0.0020638602
0.044211924 -0.17348424 -0.077518135 -0.017320633 0.26177126 0.03457483 0.023235561 -0.0516449
0.024328168 -0.07544933 0.10797123 -0.1268288 -0.31089485 -0.043699816 -0.09828978 -0.019415852
-0.41283137 -0.3187389 -0.10080213 -0.11273772 -0.02722213 0.2493689 -0.022995062 -0.20831543
0.21215689 0.06589109 -0.067039534 0.09660665 0.048187196 0.03495423 -0.02110619 -0.03578544
0.040241443 -0.033835422 -0.29163122 -0.0024635717 0.0169566 0.07262864 0.10526892 -0.12155384
-0.093565576 -0.041534353 -0.084680036 -0.008222176 0.059545122 0.1296361 -0.04012871 -0.07869281
-0.07687948 -0.12389093 -0.5718384 0.007917966 -0.49559668 -0.3154442 0.34216285 -0.28759143
-0.6414734 0.2235567 -0.39771998 -0.13865021 -0.040404078 -0.17271073 -0.25784066 0.027520813
0.19426686 0.15348901 -0.027624765 -0.08355668 -0.011868441 -0.025072541 0.034507565 -0.2011465
-0.30178812 -0.10724453 -0.28775322 -0.09554981 -0.11798719 -0.21108356 -0.020690927 -0.45812345
-0.23605853 -0.030587226 -0.16283096 -0.14467095 0.003758896 -0.22078745 0.16255608 -0.09426854
-0.62292504 0.26307464 0.028232664 -0.5151858 -0.03465966 0.3200269 -0.58202493 -0.41682032
00000000: c940 26be 4fc8 18be e449 0e3d d86b 2cbe
00000010: dfde eb3b 1dcc 0fbf 7cb6 173e fe07 f63a
00000020: 1818 583e 8e9c 0d3e 3228 063d 710b efbd
00000030: d083 a3be 46b9 f33d b410 e13d 33c7 90bd
00000040: a6db d9be 049e 7dbd c701 94bd 77ab 9a3d
00000050: 4888 49be 9915 8dbd e1c8 e1be e267 013d
00000060: 5301 123e 228a a5be 2451 7bbe 8664 87bd
00000070: 62a1 52be 2452 5c3e 2d49 24be d716 35be
00000080: 3266 213e 5ca8 54bd f6cd 813d 8f62 ccbe
00000090: 3213 043d 8b84 3d3c 68a1 b539 486b 80bd
000000a0: fa04 f63d 8dd1 27bc 5ae8 82bd 06ac df3e
000000b0: 9945 943e 0593 06be 3ea0 cdbc 8d7a 8fbe
000000c0: 7b2c 12be 5dec 3ebe 55ec 72bd e079 d1bc
000000d0: cd47 3abe 5c7b 0f3e bc45 ae3b 4dd0 7bbe
000000e0: a883 9bbe 733d 6bbe 45bb 063d 64a7 2f3d
000000f0: b4a8 3bbd d8e0 483d 4a1a f23c 36d5 c13d
00000100: 75cb 22be acb5 ea3c fd9e 6d3d 5d88 283c
00000110: acfe d53d b277 65bd 0f20 d93d ad24 d0bd
00000120: 499d 01be fe41 283d 1bce 9f3d aeab 92bc
00000130: 77b4 7a3c a47c dabd d129 1cbd 2872 e13c
00000140: 7d3e a8bd 21f9 913c 66d3 f5bc ffa7 203d
00000150: 93bf a93d 3432 003e 88c5 fa3c 201e 0e3c
00000160: 4432 05bc 24d9 49be 9a6b 46be c59c 86be
00000170: a76d 4d3e 738c 05be 42da 9b3d 7ab4 e7be
00000180: 1b35 853e e4fc 573c 0347 133e 5315 dbbc
00000190: 15e8 e33e 55e3 0dbd 4be7 93be f95b ad3e
000001a0: ef12 fb3d 122c 86bd 320a d4be a6b5 7abe
000001b0: ff11 3bbe 3754 73be ccf8 45be 8ed5 a3bd
000001c0: d83e 21bd b1f6 73be a22c af3e 8e35 babe
000001d0: f5ec 6fbe 4f1c 2fbe 96e2 19bd 74ca 363e
000001e0: b4f7 e9be b849 d13d 089a 6abe de87 51be
000001f0: 1409 083d 3ca6 99be 805f 22be 6afc 073e
00000200: fbab e5be fb07 b03d d549 73be 8210 2b3c
00000210: 14bd dd3c ce13 5abd 744e 893d eb14 8e3d
00000220: ec99 cd3d 87bd 213d 7ec0 bfbb 79df 53be
00000230: e53b a6bd ed32 38be 8199 1dbe d90b 363d
00000240: e2db acbe 8279 8ebe 7acf 9ebe 283d 5abe
00000250: 063a a7bd 1806 b1be 7a6f 02be 86ba 3abe
00000260: e648 18be 2bd0 c13d e27c 893d e7d5 4e3d
00000270: 014f bcbe 6f67 8abe 35c7 c4bd d441 073b
00000280: 9017 353d daa5 31be d4c1 9ebd 00e4 8dbc
00000290: e206 863e 569e 0d3d 8158 be3c 9a89 53bd
000002a0: de4b c73c 2e85 9abd 0520 dd3d 69df 01be
000002b0: 9c2d 9fbe 94fe 32bd 274c c9bd fe0d 9fbc
000002c0: a25e d3be bf31 a3be 5971 cebd 09e3 e6bd
000002d0: f200 dfbc 905a 7f3e 2460 bcbc a450 55be
000002e0: a83f 593e e8f1 863d 064c 89bd b5d9 c53d
000002f0: f05f 453d 2b2c 0f3d e3e6 acbc c193 12bd
00000300: 36d4 243d 0397 0abd b050 95be e073 21bb
00000310: 91e8 8a3c 53be 943d 3b97 d73d 38f1 f8bd
00000320: 4f9f bfbd ed1f 2abd ba6c adbd 4eb6 06bc
00000330: 96e5 733d 53bf 043e 015e 24bd b229 a1bd
00000340: fd72 9dbd 87ba fdbd 0064 12bf 5bba 013c
00000350: d9be fdbe e781 a1be f82f af3e 2f3f 93be
00000360: 9a37 24bf 0cec 643e f4a1 cbbe 52fa 0dbe
00000370: bf7e 25bd 15db 30be b103 84be 5473 e13c
00000380: e4ed 463e 392c 1d3e 554d e2bc c41f abbd
00000390: d973 42bc ee64 cdbc ce57 0d3d 59f9 4dbe
000003a0: f983 9abe 05a3 dbbd 6454 93be 9eaf c3bd
000003b0: 45a3 f1bd 4a26 58be 0580 a9bc 288f eabe
000003c0: 54b9 71be 1092 fabc 29bd 26be 9f24 14be
000003d0: cf57 763b 1b16 62be 1a75 263e dd0f c1bd
000003e0: 0478 1fbf b8b1 863e 3048 e73c 37e3 03bf
000003f0: 4af7 0dbd 91da a33e 96ff 14bf 7969 d5be

sequential_46/lstm_6/lstm_cell_16/split_1/ReadVariableOp/resource:0 f4 [120]
0.10749952 0.1289758 -0.015861701 0.05756814 -0.0139638325 0.022322904 -0.049302347 0.056741323
0.23327164 0.13736874 0.040464215 0.084244095 0.13847247 0.20483081 0.0927702 0.03570209
0.1184798 0.01826711 0.10761842 0.03004837 0.06451546 0.060921412 0.27469948 0.086499535
0.11662021 0.14908995 0.063057385 0.16703573 0.10351115 0.018842928 1.0372456 1.1923959
1.0568824 1.0193393 0.9583982 1.144353 1.060609 1.0048612 1.1804452 1.1258112
1.1048412 1.0328969 1.0499215 1.2158871 0.97643304 1.0202616 1.1322972 1.0902048
1.0832384 1.0992225 1.0530839 1.1126442 1.2116337 1.0769242 1.1548513 1.296027
1.03212 1.0131367 1.0485029 1.0843601 -0.040567458 -0.022032749 0.013392713 -0.11919599
-0.089952536 -0.017150199 -0.03862837 0.011686341 -0.011202895 -0.01372869 0.06355131 -0.0176993
0.0011401101 0.008279373 -0.021084128 -0.006651764 0.06244837 -0.07784075 -0.00056126737 0.011975719
0.055554174 -0.05671063 7.240038e-05 -0.045985848 -0.0298699 0.033911277 -0.0129907 -0.034741767
-0.029083693 -0.017242057 0.1412587 0.16507487 0.044362936 0.07834224 0.05036497 0.044964116
0.006407712 0.10669572 0.28799492 0.15768251 0.019801788 0.13329405 0.17905077 0.22840944
0.09912695 0.06208486 0.1648449 0.06646856 0.08046455 0.07671345 0.11476838 0.08861822
0.29029283 0.1057625 0.15745518 0.21154739 0.06432413 0.2004837 0.14880332 0.064500354
00000000: b528 dc3d 3b12 043e 66f0 81bc 92cc 6b3d
00000010: 8fc8 64bc 86de b63c 42f1 49bd 9769 683d
00000020: c3de 6e3e 64aa 0c3e cebd 253d 2b88 ac3d
00000030: bacb 0d3e 2bbf 513e 4dfe bd3d 5b3c 123d
00000040: 8aa5 f23d e8a4 953c 0c67 dc3d 0028 f63c
00000050: ae20 843d bb88 793d 69a5 8c3e ab26 b13d
00000060: 94d6 ee3d 09ab 183e 3b24 813d 6a0b 2b3e
00000070: a7fd d33d 7c5c 9a3c 77c4 843f 6ea0 983f
00000080: ec47 873f b679 823f 9659 753f 297a 923f
00000090: 09c2 873f 4b9f 803f d418 973f 951a 903f
000000a0: 706b 8d3f f735 843f d463 863f 30a2 9b3f
000000b0: 84f7 793f ef97 823f 1def 903f d58b 8b3f
000000c0: 8ea7 8a3f 53b3 8c3f 74cb 863f 206b 8e3f
000000d0: d016 9b3f a7d8 893f 2bd2 933f 36e4 a53f
000000e0: 821c 843f 77ae 813f 5835 863f 50cc 8a3f
000000f0: 102a 26bd 067e b4bc 1c6d 5b3c 071d f4bd
00000100: 0939 b8bd 937e 8cbc c838 1ebd 1178 3f3c
00000110: 598c 37bc 4dee 60bc 3027 823d 1ffe 90bc
00000120: bf6f 953a 35a6 073c 9fb8 acbc 0af7 d9bb
00000130: ddc9 7f3d f96a 9fbd 0422 13ba ce35 443c
00000140: c68c 633d 6849 68bd a8d5 9738 a85b 3cbd
00000150: b8b1 f4bc 8de6 0a3d f2d6 54bc 624d 0ebd
00000160: ed40 eebc 373f 8dbc 1fa6 103e 6309 293e
00000170: e9b5 353d e571 a03d 804b 4e3d 4b2c 383d
00000180: c9f7 d13b 4983 da3d 1274 933e 8677 213e
00000190: 5c37 a23c 3c7e 083e 1659 373e 2ae4 693e
000001a0: 1203 cb3d b24c 7e3d 1acd 283e ab20 883d
000001b0: 99ca a43d f11b 9d3d af0b eb3d 787d b53d
000001c0: 43a1 943e 029a d83d ee3b 213e e19f 583e
000001d0: 5fbc 833d 994b 4d3e e65f 183e c318 843d

sequential_46/lstm_6/lstm_cell_16/split/ReadVariableOp/resource:0 f4 [16, 120]
0.0024772158 -0.010535094 -0.02804228 -0.046335988 -0.041656982 0.0067882705 -0.08380762 -0.06360637
0.0108067 0.026138732 -0.019997701 0.045350306 0.02121475 -0.09329837 0.06719642 -0.016111134
0.01436927 0.00037653884 0.1113573 -0.056046654 0.008516862 -0.02400281 0.004646932 -0.022709897
-0.036466833 -0.06962378 -0.0060309763 0.0005129278 0.021691825 0.012862831 0.00598073 0.081630774
-0.02027335 -0.053536393 -0.06048627 0.011981817 -0.072306156 -0.094994545 -0.08087709 -0.029921098
0.030080624 0.034668665 0.017948914 -0.07481995 0.058014143 -0.03299746 0.00761494 -0.016114522
0.21527873 -0.03629378 0.064631335 0.005996422 -0.0165642 -0.044526696 -0.038446914 -0.04698912
-0.030457994 -0.008482204 0.021426516 0.029351806 0.15129185 -0.19010565 0.010872461 -0.3482234
0.0041962015 -0.03731394 -0.24707584 0.07454209 -0.1275908 -0.2823286 -0.19215812 -0.24741128
-0.34818798 -0.052247588 0.14731935 -0.21834321 -0.23615377 -0.010772307 0.5937371 0.13287541
-0.33503535 0.28370768 -0.09630446 -0.11183308 0.21123324 -0.18348333 0.033153303 0.31589198
0.15727526 -0.2341733 -0.0065967026 0.024957797 -0.013623324 -0.05597284 -0.027651254 -0.0037616661
-0.098191485 -0.05345188 -0.008306629 -0.0062536374 -0.022311872 0.03499969 0.027636291 -0.077567145
0.05812176 -0.02470563 0.01039409 -0.013394137 0.14744855 -0.07064982 0.040690437 0.0012531142
0.0025612963 -0.01746573 -0.059843387 -0.049905594 -0.026363935 -0.0013803726 0.03374131 0.008973549
-0.027353017 -0.020664671 -0.042967394 -0.009380344 0.01136243 0.09464573 0.033182856 -0.22094767
-0.09653737 0.11113708 0.023596196 0.21351962 0.14155596 -0.07162671 0.06732601 -0.052536175
0.12558961 0.05052707 0.008192128 -0.09677187 -0.046590645 0.017379956 -0.15204126 -0.07089427
0.1292596 -0.16783199 -0.09546409 0.054223917 -0.12224927 0.08377246 0.01783996 -0.026554283
-0.077625476 0.026228134 0.03924349 0.0791458 0.049149998 -0.21805155 -0.120488 0.08104552
0.03700953 0.3157921 0.16045277 -0.053774852 0.11070358 -0.016057804 0.13991041 0.04600123
0.055771474 -0.118830524 -0.09638162 0.03318623 -0.10958804 -0.03781449 0.12978463 -0.14603937
-0.113031425 0.11576006 -0.12900564 0.043522697 -0.15936595 -0.13853417 0.12194283 -0.08953128
0.096807405 -0.18814737 0.05578125 0.256329 0.09580826 -0.47910798 0.02751851 -0.08583501
0.21501087 -0.57154983 -0.10204271 -0.0757532 0.266487 -0.026043719 0.015580348 0.18430182
0.26709226 0.032086007 -0.22349796 -0.104985304 -0.29012564 -0.21863559 -0.09740332 0.036858343
-0.29880723 0.34620583 -0.018003115 -0.040090825 -0.061385687 0.020925941 -0.020749612 0.10877247
0.04882608 -0.20702586 -0.1083167 0.07061308 0.04312766 0.21170859 0.15162276 -0.104244694
0.0567716 -0.033723656 0.16484678 0.039334334 0.036649812 -0.10762762 -0.07514312 0.048272543
-0.116259456 -0.05767701 0.164389 -0.17351836 -0.12222813 0.08863638 -0.11059691 0.10629228
0.007668938 -0.016846834 -0.03328447 -0.02125269 0.0007298724 -0.04861821 -0.079846844 -0.047341146
-0.016027968 0.01721032 -0.058854762 0.013506543 -0.016410599 -0.018578602 0.02456485 -0.010240002
00000000: c958 223b 639b 2cbc ecb8 e5bc ceca 3dbd
00000010: 83a0 2abd 2470 de3b 54a3 abbd 0e44 82bd
00000020: 960e 313c e520 d63c 38d2 a3bc 3ec1 393d
00000030: 8eca ad3c 3713 bfbd 479e 893d 7ffb 83bc
00000040: 166d 6b3c 306a c539 4c0f e43d 2d91 65bd
00000050: 4f8a 0b3c 8aa1 c4bc 4a45 983b 1b0a babc
00000060: 3f5e 15bd ea96 8ebd 7f9f c5bb 0176 063a
00000070: 0eb3 b13c a0be 523c 00fa c33b 092e a73d
00000080: 4c14 a6bc fa48 5bbd 73c0 77bd 624f 443c
00000090: 4015 94bd 808c c2bd e3a2 a5bd 171d f5bc
000000a0: a46b f63c bb00 0e3d 9a09 933c 343b 99bd
000000b0: 3da0 6d3d 5828 07bd bf86 f93b 9a02 84bc
000000c0: 0772 5c3e c9a8 14bd 6f5d 843d a27d c43b
000000d0: a5b1 87bc a061 36bd 837a 1dbd aa77 40bd
000000e0: 0b83 f9bc f1f8 0abc a986 af3c 3373 f03c
000000f0: 40ec 1a3e 0eab 42be 6822 323c 564a b2be
00000100: 4a80 893b 80d6 18bd 7301 7dbe 86a9 983d
00000110: 2aa7 02be 608d 90be 19c5 44be 6259 7dbe
00000120: b245 b2be 9101 56bd e2da 163e 5d95 5fbe
00000130: 4bd2 71be 557e 30bc 28ff 173f 7e10 083e
00000140: c189 abbe 2242 913e 463b c5bd be08 e5bd
00000150: 874d 583e 0ee3 3bbe c2cb 073d 98bc a13e
00000160: c40c 213e 20cb 6fbe 2729 d8bb 4b74 cc3c
00000170: 5d34 5fbc c743 65bd e284 e2bc 4986 76bb
00000180: 9e18 c9bd 5cf0 5abd 8718 08bc 50eb ccbb
00000190: 63c7 b6bc d65b 0f3d 8165 e23c 86db 9ebd
000001a0: 1511 6e3d 7663 cabc f94b 2a3c 1573 5bbc
000001b0: c1fc 163e dab0 90bd 04ab 263d 893f a43a
000001c0: 6cdb 273b 4a14 8fbc 571e 75bd cf69 4cbd
000001d0: 2ef9 d7bc 9eed b4ba 5434 0a3d cb05 133c
000001e0: 6f13 e0bc f548 a9bc 94fe 2fbd 04b0 19bc
000001f0: 7c29 3a3c 9fd5 c13d bfea 073d 1b40 62be
00000200: 62b5 c5bd d69b e33d cf4c c13c e3a4 5a3e
00000210: 0cf4 103e 06b1 92bd 38e2 893d 2c30 57bd
00000220: 909a 003e 79f5 4e3d 4638 063c 5530 c6bd
00000230: d5d5 3ebd 6960 8e3c b4b0 1bbe 0431 91bd
00000240: a15c 043e 26dc 2bbe ad82 c3bd e619 5e3d
00000250: d35d fabd e590 ab3d 1c25 923c 5e88 d9bc
00000260: 1bfa 9ebd 62dc d63c c8bd 203d 3117 a23d
00000270: 8251 493d e848 5fbe 6ac2 f6bd 32fb a53d
00000280: 4e97 173d 81af a13e bb4d 243e 0543 5cbd
00000290: 8fb8 e23d a88b 83bc ad44 0f3e c96b 3c3d
000002a0: a170 643d 6b5d f3bd ba63 c5bd 49ee 073d
000002b0: b26f e0bd 5ee3 1abd 43e6 043e 588b 15be
000002c0: 057d e7bd 9c13 ed3d 0e1a 04be db44 323d
000002d0: d430 23be e7db 0dbe 2abd f93d 2d5c b7bd
000002e0: f642 c63d b4a9 40be e17a 643d 8e3d 833e
000002f0: 1f37 c43d a44d f5be 806e e13c 44ca afbd
00000300: cf2b 5c3e 1751 12bf c5fb d0bd 7e24 9bbd
00000310: fc70 883e a359 d5bc b744 7f3c 9eb9 3c3e
00000320: 51c0 883e 9e6c 033d a6dc 64be 8902 d7bd
00000330: 598b 94be 02e2 5fbe 647b c7bd c6f8 163d
00000340: 43fd 98be e441 b13e 457b 93bc 4736 24bd
00000350: 8f6f 7bbd e16c ab3c 17fb a9bc 1ac4 de3d
00000360: dbfd 473d 96fe 53be 25d5 ddbd 979d 903d
00000370: a1a6 303d 23ca 583e ff42 1b3e 3e7e d5bd
00000380: 5689 683d d121 0abd 98cd 283e 0a1d 213d
00000390: 1d1e 163d df6b dcbd a3e4 99bd 6eb9 453d
000003a0: 7019 eebd ba3e 6cbd 9755 283e ccae 31be
000003b0: be52 fabd fe86 b53d a280 e2bd c4af d93d
000003c0: b74b fb3b 5f02 8abc 4c55 08bd 1f1a aebc
000003d0: e854 3f3a e323 47bd be86 a3bd cae8 41bd
000003e0: 164d 83bc a8fc 8c3c b111 71bd 8c4a 5d3c
000003f0: 856f 86bc 2732 98bc 393c c93c aec5 27bc

sequential_46/lstm_6/lstm_cell_16/ReadVariableOp/resource:0 f4 [30, 120]
-0.17675364 0.29211402 -0.17415604 -0.103104845 -0.17514165 -0.017444419 -0.12930349 -0.0631027
-0.43386596 -0.15368333 -0.09449553 -0.5056301 -0.3769871 -0.66136664 0.032032948 -0.2887766
-0.282932 -0.20541388 -0.09061136 -0.1535567 -0.42282373 -0.009137015 -0.19202454 -0.041437387
-0.3238189 -0.030958906 -0.20326613 -0.091909036 -0.36276945 -0.3096215 0.11849138 0.09118437
-0.041211568 -0.011935089 -0.21509832 -0.1777169 -0.008136672 -0.27131334 -0.46249458 -0.32116878
-0.23848397 -0.23275389 -0.0010613173 -0.61639374 0.11206404 -0.22629967 -0.14693458 -0.112267755
0.031176614 -0.1321802 -0.22912039 0.1743077 0.046332136 -0.060542535 -0.30316022 -0.108324975
-0.39595872 -0.27564642 -0.34760243 -0.2011255 0.0043842467 0.15882957 0.04660492 0.09081425
-0.003335809 0.25626 0.06243546 0.10465798 -0.048687108 -0.050632752 0.09129133 0.036619127
-0.01333065 0.06709502 -0.14365591 0.077905074 -0.042357408 -0.030700793 0.05377604 0.08969633
-0.03838227 -0.10802161 -0.06814288 -0.0037404292 -0.113072775 0.020415178 -0.10615939 0.16027284
0.030944673 -0.00972846 -0.10802294 0.1159585 -0.1309581 -0.22759163 -0.22931068 -0.274988
-0.3509815 -0.32927445 -0.49407667 -0.12933426 -0.1681501 -0.39517197 -0.33252656 -0.60434246
0.110464476 -0.11079336 -0.29148412 -0.18667449 -0.20510755 -0.13090132 -0.3785379 -0.12675348
-0.15616997 -0.07308788 -0.32366785 0.07108796 -0.1775765 -0.29586658 -0.4387467 -0.27801248
0.3742043 -0.38040176 0.08438728 0.04145371 -0.06382001 -0.2155719 0.18412644 -0.32816234
-0.16800755 0.3742383 0.20694251 -0.0592155 0.039700437 -0.20139244 0.17411058 -0.10133395
0.06795606 -0.060104713 -0.23604803 0.020142015 0.33125192 -0.060232118 -0.5599699 -0.19707945
0.038913846 -0.17818199 0.1890064 0.2960842 0.20755109 0.017219625 0.09193163 -0.15962394
0.10342937 0.11433694 0.21626456 0.015201053 0.11290445 -0.4663502 -0.35244226 0.14701727
-0.084220864 -0.14243212 -0.11350421 -0.022144359 0.046649963 -0.001459361 -0.07684542 -0.032497775
-0.085154735 0.0436861 -0.098247305 -0.20787534 -0.10812116 0.0024961147 -0.14533342 -0.0021046472
0.11212921 -0.08610587 -0.05590971 0.099764176 -0.20200342 0.18132071 -0.11488184 0.17821492
0.21595445 0.12344165 0.116676055 0.08998338 -0.14995967 0.077395506 0.18695894 -0.18892753
0.03527671 0.07856227 -0.18380898 -0.05121153 -0.1394377 0.068506815 0.052925736 -0.19544782
-0.03996581 0.00086432905 0.002977292 0.060786724 0.027277563 -0.12545085 0.055085383 -0.1346539
-0.017159646 -0.15412343 0.3351804 -0.4856987 0.0070416722 -0.2214038 0.22719389 -0.046031717
-0.078131214 -0.016525581 -0.17194906 0.3777466 0.19309308 -0.116817966 0.022643149 0.12883243
0.07076169 -0.057882063 0.08115395 -0.18899754 -0.19882974 0.12055976 0.31413227 -0.30284643
-0.066053346 -0.0011182395 -0.20186466 0.036081806 0.5034363 0.43031967 0.32778442 0.06773852
0.13637024 -0.14722152 0.08156107 -0.05380544 -0.040489856 0.18833606 0.050296888 0.22419232
0.20951024 0.4866649 0.3423585 0.3411419 0.22785409 0.4186509 0.15461715 0.20307665
00000000: e8fe 34be f88f 953e f655 32be a228 d3bd
00000010: 5558 33be 99e7 8ebc 2268 04be fd3b 81bd
00000020: ae23 debe 2a5f 1dbe df86 c1bd f970 01bf
00000030: 7404 c1be 534f 29bf fb34 033d 87da 93be
00000040: 77dc 90be 0458 52be 7392 b9bd f83d 1dbe
00000050: 5a7c d8be 6bb3 15bc 15a2 44be 40ba 29bd
00000060: 97cb a5be 889d fdbc ff24 50be ce3a bcbd
00000070: ebbc b9be b686 9ebe 9cab f23d dfbe ba3d
00000080: 76cd 28bd 648b 43bc bc42 5cbe 6bfb 35be
00000090: ad4f 05bc 95e9 8abe 17cc ecbe 3c70 a4be
000000a0: 2435 74be 0957 6ebe e61b 8bba fbcb 1dbf
000000b0: d581 e53d 1abb 67be 0576 16be a3ec e5bd
000000c0: 1966 ff3c 3f5a 07be 899e 6abe b87d 323e
000000d0: c4c6 3d3d 73fb 77bd d137 9bbe 7cd9 ddbd
000000e0: 1abb cabe 8721 8dbe f2f8 b1be d8f3 4dbe
000000f0: baa9 8f3b 38a4 223e cde4 3e3d d2fc b93d
00000100: 979d 5abb 8334 833e 53bc 7f3d ec56 d63d
00000110: 226c 47bd 4a64 4fbd f3f6 ba3d f0fd 153d
00000120: cc68 5abc 1d69 893d 891a 13be b28c 9f3d
00000130: f67e 2dbd 3b80 fbbc 4444 5c3d b6b2 b73d
00000140: ba36 1dbd 6f3a ddbd 7f8e 8bbd fd21 75bb
00000150: b392 e7bd bb3d a73c 186a d9bd 901e 243e
00000160: af7f fd3c 1e64 1fbc 223b ddbd a67b ed3d
00000170: e119 06be c80d 69be 6bd0 6abe 3acb 8cbe
00000180: d9b3 b3be a996 a8be 9ef7 fcbe 3370 04be
00000190: 8a2f 2cbe fb53 cabe ec40 aabe 30b6 1abf
000001a0: 333b e23d a1e7 e2bd 683d 95be 9927 3fbe
000001b0: b707 52be ff0a 06be b8cf c1be aacb 01be
000001c0: 05eb 1fbe 19af 95bd cbb7 a5be 9096 913d
000001d0: 9dd6 35be d37b 97be 68a3 e0be a757 8ebe
000001e0: b597 bf3e 05c4 c2be 3dd3 ac3d 5ecb 293d
000001f0: 11b4 82bd e1be 5cbe a48b 3c3e e504 a8be
00000200: 2c0a 2cbe 2a9c bf3e bde8 533e f48b 72bd
00000210: ed9c 223d d239 4ebe 0b4a 323e 2d88 cfbd
00000220: 8c2c 8b3d 5c30 76bd 93b6 71be de00 a53c
00000230: da99 a93e f4b5 76bd 305a 0fbf 32cf 49be
00000240: 2064 1f3d 5775 36be e58a 413e 5998 973e
00000250: 4688 543e 2c10 8d3c a746 bc3d 7574 23be
00000260: c7d2 d33d 7c29 ea3d 7574 5d3e d60d 793c
00000270: 733a e73d 74c5 eebe 5073 b4be b28b 163e
00000280: fd7b acbd bad9 11be e574 e8bd 1668 b5bc
00000290: 0814 3f3d 0848 bfba 2261 9dbd 631c 05bd
000002a0: 9b65 aebd 32f0 323d e235 c9bd 46dd 54be
000002b0: a06e ddbd db95 233b 49d2 14be 1fee 09bb
000002c0: 00a4 e53d 4658 b0bd 9401 65bd 2951 cc3d
000002d0: fcd9 4ebe 23ac 393e 2c47 ebbd f97d 363e
000002e0: 2a23 5d3e face fc3d dbf3 ee3d 3549 b83d
000002f0: 078f 19be 8981 9e3d 2a72 3f3e 3876 41be
00000300: 507e 103d 41e5 a03d 6c38 3cbe 2ec3 51bd
00000310: c2c8 0ebe 4d4d 8c3d a8c8 583d 7923 48be
00000320: 30b3 23bd 2494 623a ac1e 433b 80fb 783d
00000330: 3275 df3c 3076 00be 36a1 613d b6e2 09be
00000340: 6392 8cbc 88d2 1dbe c49c ab3e 80ad f8be
00000350: d4bd e63b aeb7 62be 84a5 683e c18b 3cbd
00000360: 4203 a0bd a860 87bc 6a13 30be 0168 c13e
00000370: 31ba 453e 423e efbd 207e b93c a6ec 033e
00000380: 81eb 903d be15 6dbd 0b34 a63d 9288 41be
00000390: 069a 4bbe 09e8 f63d f2d5 a03e b00e 9bbe
000003a0: fa46 87bd e491 92ba 9cb5 4ebe 84ca 133d
000003b0: 34e1 003f dc52 dc3e 5cd3 a73e 7eba 8a3d
000003c0: a4a4 0b3e 3dc1 16be 7e09 a73d 1863 5cbd
000003d0: b1d8 25bd 2bdb 403e 1c04 4e3d ac92 653e
000003e0: da89 563e 242c f93e 9d49 af3e 27aa ae3e
000003f0: 9552 693e 6959 d63e f553 1e3e 53f3 4f3e

sequential_46/dense_46/MatMul/ReadVariableOp:0 f4 [30, 13]
-0.23895258 0.23626639 -0.66979605 0.27262816 -0.2976129 0.6504772 -0.51616555 0.45760858
-0.16163012 0.72918934 -0.8590581 -0.912783 1.2284434 0.8779552 -0.5668361 -0.6999445
-0.096707284 0.8596335 -0.581184 0.051511947 0.13852185 0.5084656 0.71978045 -0.39693418
-0.9244037 -0.26465863 0.495722 -0.10867747 0.33209643 -0.7122685 0.2965338 1.3482805
-0.42606008 -0.38352567 -0.5870655 0.8555319 0.08096776 -0.2757817 -0.6386637 -0.71373177
0.37902054 -0.3924998 0.2843169 -0.7828643 0.18941796 0.29621622 -0.22424832 -0.99387836
0.24167527 0.7348234 -0.3112928 0.1457324 -0.597188 -0.41863406 -0.7355582 -0.5916992
0.74363047 0.24634203 -0.60052085 -0.59864074 0.21823795 0.9904874 0.8417445 -0.04652516
0.7499687 -0.42372918 0.25127 -0.4057645 0.6356242 -0.096246995 -0.7319211 -0.30288258
0.6734039 -0.70625025 -0.085653424 1.364466 -0.63888127 0.17523465 -0.3079493 0.67474216
0.0038027507 0.40654922 -0.22279486 -1.3038949 -1.2070533 0.42581096 -0.28053957 0.5095846
0.36611223 -0.08579393 0.42456403 0.6238735 -0.17557466 0.487282 0.45569435 -0.15925522
-0.20797119 0.39543176 0.704045 -0.4557398 0.11313599 0.1341777 -0.8400536 -0.8554863
0.11904357 0.6228001 -0.08165973 0.8863657 -0.2861382 0.13667008 0.074576825 -0.9166088
-0.50503975 -0.3590018 -0.593682 -0.7554916 1.6376145 0.6052189 -0.7438138 0.5029208
-0.52052677 0.6377328 0.75614774 0.39156598 -0.503498 0.19720712 -0.29183105 -0.18545318
-0.45726967 0.09490327 -0.6228707 0.45532995 0.16531079 0.42689833 -0.8424766 0.71898806
-0.59538925 0.91250855 -0.23175561 -0.49088845 -0.49532792 -0.2612109 -0.55863816 -0.14181423
0.41634423 0.67253286 0.7439109 0.63277787 0.005490974 0.07350281 -0.22816837 -0.6693084
-0.2426173 -0.3054941 -0.19148101 -0.63572365 0.32331675 0.21519624 -0.98315024 0.42669672
0.39929265 -0.22512105 0.2263203 0.36587632 0.010220141 -1.2938838 0.38469288 0.2487863
-0.45735398 0.37763485 -0.08113994 1.2213849 -0.683186 -0.8173828 -0.057814635 0.38617477
0.76864046 -0.92011136 0.50412196 0.46933347 -1.026215 0.00980663 -0.1285335 -0.6121085
0.03559932 -0.27069288 -0.14878875 0.707377 -0.27453393 1.108737 -1.3072243 -0.7914017
-0.060043786 0.6456781 0.7938141 0.8421669 -0.31048346 0.7730612 0.3331343 -0.90848666
-0.77998805 0.30373552 -0.3487067 0.33390123 0.8707875 -0.017425602 0.8288218 -0.9048437
0.24041528 0.19708215 -1.2275577 -1.3548157 0.21287565 -1.687907 0.3073993 -0.30271336
-0.8583322 -0.018243475 0.30542564 0.7128649 0.57588464 -0.52545416 -0.54438996 0.80543566
1.1361245 -0.5909268 0.15270439 0.68026847 -0.10234002 0.8474249 0.58888006 0.07824419
-1.2826922 -0.6713204 0.6442075 -0.20857169 0.5128867 -0.28188393 0.6023794 -0.5448483
-0.3155813 0.3824174 -0.5568402 -0.3676903 -0.53150976 0.4055048 0.18273647 0.13889275
0.32434213 -0.9431849 0.589311 0.39972937 0.22187497 0.7583822 -0.25108722 -0.43032217
00000000: fcaf 74be d1ef 713e c177 2bbf eb95 8b3e
00000010: b860 98be ac85 263f 6d23 04bf ac4b ea3e
00000020: 5e82 25be 27ac 3a3f 3beb 5bbf 26ac 69bf
00000030: a23d 9d3f acc1 603f 2c1c 11bf 902f 33bf
00000040: 780e c6bd f110 5c3f 7ac8 14bf 31fe 523d
00000050: acd8 0d3e cd2a 023f 8843 383f f53a cbbe
00000060: b9a5 6cbf 5681 87be 46cf fd3e 4b92 debd
00000070: 8b08 aa3e 3a57 36bf 47d3 973e 7594 ac3f
00000080: 8c24 dabe 7a5d c4be ed49 16bf 2304 5b3f
00000090: 6dd2 a53d 4233 8dbe 777f 23bf 20b7 36bf
000000a0: fb0e c23e bcf5 c8be fc91 913e cb69 48bf
000000b0: c8f6 413e a7a9 973e 5aa1 65be d06e 7ebf
000000c0: b979 773e 631d 3c3f c561 9fbe e03a 153e
000000d0: 50e1 18bf 3457 d6be 8b4d 3cbf 9979 17bf
000000e0: 915e 3e3f 1641 7c3e bcbb 19bf 8540 19bf
000000f0: c579 5f3e 9590 7d3f 917c 573f 2b91 3ebd
00000100: f3fd 3f3f 08f3 d8be 76a6 803e 5dc0 cfbe
00000110: 44b8 223f 251d c5bd 2e5f 3bbf 6d13 9bbe
00000120: 3364 2c3f d1cc 34bf 106b afbd d2a6 ae3f
00000130: b98d 23bf b670 333e 88ab 9dbe e7bb 2c3f
00000140: 9237 793b 3827 d03e 5624 64be 07e6 a6bf
00000150: b980 9abf e503 da3e e2a2 8fbe 2374 023f
00000160: 1073 bb3e bab4 afbd 7560 d93e 2cb6 1f3f
00000170: d8c9 33be 077d f93e c550 e93e cd13 23be
00000180: 66f6 54be 0876 ca3e 4b3c 343f ba56 e9be
00000190: d8b3 e73d e165 093e c10d 57bf 2601 5bbf
000001a0: 1dcd f33d d46f 1f3f 373d a7bd dde8 623f
000001b0: b580 92be 3ef3 0b3e bcbb 983d e0a6 6abf
000001c0: 494a 01bf 15cf b7be 8bfb 17bf e667 41bf
000001d0: 5a9d d13f a0ef 1a3f 956a 3ebf 6bbf 003f
000001e0: 3e41 05bf 7542 233f e692 413f 567b c83e
000001f0: 3fe5 00bf aaf0 493e e16a 95be 70e7 3dbe
00000200: 401f eabe a55c c23d 7474 1fbf 0221 e93e
00000210: 3b47 293e 6b92 da3e 8cac 57bf 9a0f 383f
00000220: 6e6b 18bf 299a 693f 5851 6dbe bb55 fbbe
00000230: 9f9b fdbe 6fbd 85be e902 0fbf c037 11be
00000240: 122b d53e 1d2b 2c3f f270 3e3f bbfd 213f
00000250: a1ed b33b a488 963d f8a4 69be cc57 2bbf
00000260: ab70 78be b969 9cbe 9913 44be c9be 22bf
00000270: c689 a53e 675c 5c3e bcaf 7bbf fe77 da3e
00000280: 1670 cc3e 2286 66be 82c0 673e 2454 bb3e
00000290: 6172 273c fc9d a5bf 77f6 c43e d6c1 7e3e
000002a0: 4d2a eabe 5b59 c13e b22c a6bd 5756 9c3f
000002b0: 47e5 2ebf 0040 51bf 0acf 6cbd b3b8 c53e
000002c0: 9fc5 443f 6b8c 6bbf 230e 013f 7a4c f03e
000002d0: 035b 83bf fdab 203c 499e 03be 25b3 1cbf
000002e0: 98d0 113d 4298 8abe 145c 18be a916 353f
000002f0: b68f 8cbe 18eb 8d3f 2053 a7bf 4d99 4abf
00000300: 79f0 75bd 294b 253f 6737 4b3f 4098 573f
00000310: b0f7 9ebe 57e7 453f 9490 aa3e 9592 68bf
00000320: 4cad 47bf 3983 9b3e af89 b2be 1af5 aa3e
00000330: eeeb 5e3f 23c0 8ebc aa2d 543f d6a3 67bf
00000340: 6c2f 763e e7cf 493e 9c20 9dbf 9a6a adbf
00000350: 13fc 593e 560d d8bf 7163 9d3e 3ffd 9abe
00000360: a9bb 5bbf 5773 95bc c060 9c3e 507e 363f
00000370: 2d6d 133f 2a84 06bf 245d 0bbf 0831 4e3f
00000380: 876c 913f fb46 17bf 8a5e 1c3e 1326 2e3f
00000390: a597 d1bd d7f0 583f d8c0 163f 7d3e a03d
000003a0: 422f a4bf a7db 2bbf c8ea 243f d193 55be
000003b0: 8b4c 033f 1753 90be 8935 1a3f 2e7b 0bbf
000003c0: df93 a1be 37cc c33e 148d 0ebf e741 bcbe
000003d0: 0611 08bf 539e cf3e 451f 3b3e e739 0e3e
000003e0: 2c10 a63e 9174 71bf 16dd 163f 54a9 cc3e
000003f0: 3133 633e 5625 423f 818e 80be 3053 dcbe

sequential_46/dense_46/BiasAdd/ReadVariableOp:0 f4 [13]
0.12984177 0.17435211 0.08905534 -0.15489629 -0.17009273 0.043327693 -0.24720134 -0.19511689
0.118088655 0.5412306 -0.19393907 -0.21580929 -0.17559597
00000000: 3ef5 043e 5c89 323e a562 b63d 229d 1ebe
00000010: ca2c 2ebe 6178 313d 5922 7dbe b9cc 47be
00000020: 77d8 f13d 178e 0a3f f797 46be 1cfd 5cbe
00000030: 6ecf 33be
