Src/behaviours/vision/models/rnn_128x64_20.onnx (onnx, 144768 bytes, 8 tensors)

sequential_31/simple_rnn_55/simple_rnn_cell_111/MatMul_1/ReadVariableOp/resource:0 f4 [64, 64]
0	0x3dcc7474	0.09983149
1	0x3d1df1af	0.038560566
2	0xbe3f6aae	-0.18693039
3	0xbc772ecf	-0.015086844
4	0x3d32f0f5	0.043686826
5	0x3d350465	0.044193644
6	0x3d67939e	0.056537263
7	0xbe13668b	-0.14394586
8	0xbe072113	-0.1319621
9	0xbdb80c5c	-0.08986732
10	0x3acca2ed	0.001561252
11	0x3d466c11	0.048442904
12	0xbe3aa626	-0.18227443
13	0x3d8b9345	0.06815199
14	0xbdba5742	-0.09098674
15	0x3d4056e1	0.046957854
16	0x3d7d5640	0.061849833
17	0x3e84600b	0.25854525
18	0x3e5d387a	0.21603575
19	0xbc96a5dc	-0.018389635
20	0x3d302db5	0.04301234
21	0xbe62896d	-0.22122736
22	0xbd89bda2	-0.06725623
23	0x3e0ae240	0.1356287
24	0x3d5fcc79	0.05463836
25	0x3d25440b	0.040348094
26	0xbe886e69	-0.26646736
27	0x3d992905	0.07478527
28	0xbd9af86d	-0.07566915
29	0x3e2a9181	0.16657068
30	0x3bbd6530	0.0057798848
31	0x3e7bf858	0.24606454
32	0x3e152f6c	0.14568871
33	0x3dc29141	0.09500361
34	0xbe0b536f	-0.13606046
35	0xbc410eb8	-0.011783294
36	0x3d9edb15	0.0775663
37	0xbe180984	-0.1484738
38	0x3e3949a3	0.18094496
39	0xbd72a749	-0.059241567
40	0x3e6f1243	0.2334681
41	0xbdb95eb0	-0.09051263
42	0x3e2880d8	0.164554
43	0xbd9a6671	-0.075390704
44	0xbe4673e7	-0.1938015
45	0x3ac5cae9	0.0015090379
46	0xbc4103b1	-0.011780665
47	0xbd463830	-0.04839343
48	0x3d5b4180	0.053529263
49	0x3e6ece5d	0.23320909
50	0xbdd049db	-0.10170337
51	0x3e6fbd0d	0.23411961
52	0x3d1421d9	0.036165092
53	0x3e11703b	0.14202969
54	0xbc85a3c4	-0.016313441
55	0x3c1e7725	0.009671961
56	0x3e31d490	0.17366242
57	0xbc3eed87	-0.011653311
58	0xbe0475df	-0.12935589
59	0x3ea32875	0.31866804
60	0x3e0824ba	0.1329526
61	0xbc44df55	-0.012016137
62	0xbd885d06	-0.06658368
63	0xbca5effa	-0.020256031
64	0xbe4a9b39	-0.19785775
65	0x3d84be87	0.06481653
66	0x3d97e94a	0.07417543
67	0x3ddab02c	0.10678133
68	0x3da3fc93	0.08007159
69	0xbdf098e7	-0.11747914
70	0x3dcf41f8	0.101200044
71	0x3d326c3a	0.043560244
72	0x3cc7b9c2	0.024380568
73	0x3d3454e6	0.044026278
74	0xbc970b86	-0.018438112
75	0x3e049420	0.1294713
76	0xbdc6210b	-0.09674271
77	0xbd83ae5e	-0.06429742
78	0xbd3482c6	-0.044070028
79	0x3da8cc24	0.08242062
80	0x3e057cc3	0.13035874
81	0xbdff0a21	-0.12453104
82	0xbe08fb4d	-0.13377114
83	0xbe53f041	-0.20697118
84	0xbb068eb6	-0.002053184
85	0xbdf9a041	-0.12188769
86	0x3e9ab326	0.30214804
87	0xbc20d944	-0.009817425
88	0xbd346c3c	-0.044048533
89	0xbd625ffd	-0.055267323
90	0x3e1ffd35	0.15623935
91	0x3debaf09	0.11507995
92	0x3d989496	0.074502155
93	0x3ddafb43	0.106924556
94	0x3aa56ac3	0.0012620318
95	0x3d9f4437	0.07776683
96	0x3b0ae5bb	0.002119406
97	0xbd6ea923	-0.05826677
98	0xbd4ed664	-0.050497428
99	0x3d04a245	0.032381315
100	0x3dcda1ad	0.10040603
101	0x3d017438	0.031604975
102	0xb847a848	-4.760202e-05
103	0xbcb7dd72	-0.02244446
104	0xbdcb31ae	-0.09921585
105	0xbd8164b4	-0.06318036
106	0x3d2977be	0.04137396
107	0xbee19c19	-0.44064406
108	0x3d8c6585	0.06855301
109	0x3e32ebab	0.17472713
110	0xbdc2f663	-0.09519651
111	0xbc4ae450	-0.0123835355
112	0x3d37d81b	0.04488383
113	0x3cf0d07a	0.029396284
114	0x3e42df99	0.19030608
115	0xbdf5a3eb	-0.119941555
116	0x3df84647	0.12122779
117	0x3a310618	0.0006752922
118	0xbdaf1503	-0.085489295
119	0xbe380acc	-0.17972869
120	0xbd2a233c	-0.04153751
121	0x3eba3af7	0.36373112
122	0xbc17d3fc	-0.00926685
123	0xbd6e573b	-0.05818866
124	0x3d728f24	0.05921854
125	0xbe0de5bc	-0.13857168
126	0x3be0dccb	0.006862258
127	0x3e3b4c00	0.1829071
128	0xbe0b39cd	-0.13596268
129	0x3cb95913	0.022625482
130	0x3d039a70	0.032129705
131	0x3e006532	0.12538603
132	0x3c3fe744	0.011712853
133	0xbd379ee8	-0.04482928
134	0xbce560ce	-0.028000262
135	0xbe3603db	-0.17774908
136	0x3e37408b	0.17895715
137	0x3df453c9	0.11930043
138	0xbde8bb72	-0.11363877
139	0xbde70685	-0.112805404
140	0xbda15861	-0.07878185
141	0x3c33c434	0.010972071
142	0xbda4fdf4	-0.0805625
143	0xbd1dd60c	-0.03853421
144	0x3d462524	0.048375264
145	0x3dba7619	0.091045566
146	0xbe2e32e8	-0.17011607
147	0xbd68a601	-0.05679894
148	0xbe3cb505	-0.18428428
149	0x3e025c93	0.12730627
150	0x3d512338	0.051058978
151	0xbde45d63	-0.111506246
152	0xbe186b0a	-0.14884582
153	0x3db9b262	0.09067227
154	0xbce8b3a2	-0.028405968
155	0xbd9caa43	-0.07649662
156	0xbd8e7544	-0.069559604
157	0xbe510d9b	-0.20415346
158	0xbd4ca35b	-0.049960475
159	0xbd9a2703	-0.07526972
160	0x3cffafdc	0.031211786
161	0x3e3a000a	0.18164077
162	0x3e2cc7f5	0.16873153
163	0xbe03d214	-0.12873107
164	0xbca9edda	-0.0207433
165	0x3e7a9e05	0.24474342
166	0x3d13872c	0.03601758
167	0x3d5bc031	0.053650085
168	0x3e198029	0.14990295
169	0x3ea67a95	0.32515398
170	0xbd2e2969	-0.04251996
171	0x3d6aa351	0.057284657
172	0xb9de6a81	-0.0004242249
173	0xbd6957b8	-0.05696842
174	0x3dec9a17	0.11552828
175	0xbcb0f8da	-0.021603037
176	0xbe0006bc	-0.12502569
177	0x3eaed73c	0.34148586
178	0x3e91453f	0.28373143
179	0xbe5a5870	-0.21322799
180	0xbe36a1f4	-0.17835218
181	0x3e0054e7	0.12532388
182	0xbc5fd9d8	-0.013662778
183	0xbe16d7af	-0.14730714
184	0x3e20adee	0.15691349
185	0x3c8b8726	0.017032217
186	0x3d452b65	0.048137087
187	0xbd5f50c1	-0.054520372
188	0xbe5daa4a	-0.21646991
189	0x3e2657da	0.1624445
190	0xbc2d0ae9	-0.010561683
191	0xbcdbabde	-0.026815351
192	0x3c8accb1	0.016943308
193	0xbc952b50	-0.01820913
194	0x3dbd7efc	0.09252736
195	0x3cd7f441	0.026361587
196	0x3d24e9d1	0.040262047
197	0xbe09b73f	-0.13448809
198	0xbdfefdf2	-0.1245078
199	0x3db12539	0.08649678
200	0x3e85fbfe	0.26168817
201	0x3e6fffe4	0.23437458
202	0xbcd7c8f5	-0.026340941
203	0x3d9bc1f5	0.07605354
204	0xbdfcb504	-0.123392135
205	0x3defc4ae	0.117074355
206	0x3dc7ef9a	0.09762497
207	0xbd195e3a	-0.037443377
208	0xbc7951fe	-0.015217302
209	0xbd732106	-0.059357665
210	0xbd30ca8b	-0.04316191
211	0xbde09b00	-0.10967064
212	0xbdce62d1	-0.100774415
213	0x3db056ac	0.08610281
214	0xbdf92818	-0.121658504
215	0xbe37b748	-0.1794101
216	0x3e5ece57	0.217584
217	0xbe6bee5e	-0.23040149
218	0xbe4072d4	-0.18793803
219	0x3d8ed06b	0.06973346
220	0xbe266adc	-0.16251701
221	0xbdede20d	-0.116153814
222	0xbd26a018	-0.04068002
223	0x3ca993c0	0.020700336
224	0xbe5e9ebc	-0.2174024
225	0x3d50361c	0.050832853
226	0x3e269a47	0.1626979
227	0x3e23ff86	0.16015443
228	0x3d9386aa	0.072034195
229	0xbda71884	-0.08158973
230	0xbd9b5e6d	-0.0758637
231	0xbde30205	-0.110843696
232	0xbe37effc	-0.1796264
233	0xbd8cd346	-0.06876235
234	0x3ea27410	0.31729174
235	0x3e089317	0.1333736
236	0xbe0c9d37	-0.13731848
237	0x3dd9e2ac	0.10638937
238	0xbaa10ea2	-0.0012287686
239	0xbd2eb652	-0.042654343
240	0x3da9d3a0	0.082923174
241	0x3e206df0	0.15666938
242	0x3da8926c	0.08231053
243	0x3da730bb	0.081635915
244	0x3d5d7079	0.05406234
245	0x3cc7671c	0.024341159
246	0x3e365183	0.17804532
247	0x3e1c4fd5	0.15264829
248	0xbccde8f2	-0.025135491
249	0xbe4432af	-0.1915996
250	0x3cfe2c4a	0.031026978
251	0xbd3d868c	-0.046270892
252	0xbea49b30	-0.3214965
253	0xbd1e1448	-0.03859356
254	0x3ce29b2a	0.027661879
255	0x3e40f1f0	0.18842292

sequential_31/simple_rnn_55/simple_rnn_cell_111/MatMul/ReadVariableOp/resource:0 f4 [128, 64]
0	0xbd2a92e0	-0.041643977
1	0x3d8ec49a	0.069710925
2	0x3d9a8730	0.07545316
3	0x3cb18933	0.021671867
4	0xbda07c62	-0.07836224
5	0xbd6ed7a6	-0.058311127
6	0x3e110f1d	0.14165922
7	0x3ca264f4	0.019823529
8	0x3b4f686c	0.0031647934
9	0xbcd1c628	-0.025607184
10	0xbc9457b2	-0.018108223
11	0xbdc6044f	-0.096687905
12	0xbc82690e	-0.015919235
13	0x3c5c1f96	0.013435265
14	0x3c9027fb	0.01759719
15	0xbe1c3968	-0.15256274
16	0x3ddc3932	0.10753097
17	0x3d8d03e4	0.06885508
18	0xbceb01c1	-0.02868736
19	0x3b1b523c	0.0023700139
20	0x3d3298aa	0.043602623
21	0x3db3fe13	0.08788695
22	0x3d1c899b	0.03821717
23	0x3da6cd15	0.08144585
24	0xbe2bc9bc	-0.16776174
25	0xbe402141	-0.18762685
26	0x3c4c58f4	0.01247238
27	0xbd9cd4b7	-0.0765776
28	0x3cb2084a	0.021732468
29	0xbe31f969	-0.17380299
30	0x3df0c785	0.11756805
31	0xbdd5f574	-0.10447207
32	0x3c35827a	0.011078471
33	0x3d7eca71	0.062204782
34	0x3ca6a8d1	0.02034417
35	0xbd94f413	-0.07273116
36	0xbc839412	-0.016061816
37	0xbc842ea0	-0.016135514
38	0x3d9d5a1b	0.07683202
39	0xbdca68e6	-0.09883289
40	0xbcede381	-0.029039146
41	0x3d4334c9	0.04765776
42	0xbd3b15f2	-0.045675226
43	0x3e3c9fa2	0.1842027
44	0x3da047e1	0.0782621
45	0xbdbe4735	-0.092909254
46	0xbdcb1e91	-0.099179395
47	0x3c3ba1c3	0.011452141
48	0xbbbf6061	-0.0058403467
49	0xbd8d5b55	-0.06902186
50	0x3dd34d55	0.10317484
51	0xbd7ca451	-0.06168014
52	0x3cd47df0	0.025938958
53	0xbdc6205d	-0.096741416
54	0x3c9b0102	0.018921379
55	0xbd49fc83	-0.04931308
56	0x3bc8485c	0.0061121415
57	0x3c4ec312	0.012619751
58	0xbd73f16e	-0.059556417
59	0x3d77344d	0.060352612
60	0xba243948	-0.0006264639
61	0x3b2a0662	0.0025943746
62	0xbdf25a99	-0.118336864
63	0x3d734ad6	0.05939754
64	0x3d2379b5	0.03991099
65	0x3c085cf9	0.008322948
66	0xbd77a6eb	-0.06046192
67	0xbd1f6cb3	-0.038922023
68	0xbb05d0fd	-0.0020418756
69	0x3c8f42fd	0.017487997
70	0x3bf469dc	0.0074589085
71	0xbb905804	-0.0044050235
72	0xbcea727c	-0.028619044
73	0xbc011afc	-0.007879969
74	0xbc1fe662	-0.009759517
75	0xbd2f5f4c	-0.04281549
76	0x3b4b1404	0.0030987272
77	0x3a969a7c	0.0011490132
78	0xbc159a59	-0.009131038
79	0xbd02b175	-0.031907517
80	0xbc8b3edd	-0.016997749
81	0xbd277402	-0.040882118
82	0xbc729825	-0.014806782
83	0xbc98d670	-0.01865694
84	0x3d3757f3	0.04476161
85	0xbce4fedb	-0.027953556
86	0xbd00b160	-0.031419158
87	0x3c5ebe6f	0.013595208
88	0x3cdc0f48	0.026862755
89	0x3c9900b9	0.018677102
90	0x3cfd2c63	0.030904954
91	0x3c8ebcf8	0.017424092
92	0x3c85c66e	0.01632997
93	0x3dd13fde	0.1021726
94	0xbcd1e883	-0.025623566
95	0x3c94bc68	0.018156245
96	0xbd10f841	-0.035393003
97	0xbd99feb8	-0.07519287
98	0xbd9227c3	-0.0713649
99	0x3c564d35	0.013079931
100	0xbb9e6e5a	-0.0048349323
101	0x3c240696	0.010011336
102	0xbc30ce63	-0.010791394
103	0x3b3fb380	0.0029251277
104	0xbbc932be	-0.006140082
105	0x3c549397	0.012974641
106	0xbc57a6f2	-0.013162361
107	0xbd2add63	-0.041715037
108	0x3c5570d4	0.013027389
109	0x3c978081	0.018493893
110	0x3c82c836	0.015964609
111	0x3ace5f92	0.0015745035
112	0x3d4bdad8	0.049769253
113	0x3ceb6f7f	0.028739689
114	0xbd09c535	-0.033635337
115	0x39902b60	0.00027498137
116	0x3da3bfed	0.07995591
117	0xbd4ac992	-0.04950864
118	0x3d1130e1	0.035447005
119	0xbd7061ab	-0.058686893
120	0xbca3e8aa	-0.020008404
121	0x3c5214da	0.012822354
122	0x3ccce373	0.0250108
123	0x3d588425	0.052860398
124	0xbb9b70d0	-0.004743673
125	0x3c4e0b48	0.012575932
126	0x3cd3e650	0.025866657
127	0x3bcd569f	0.0062664296
128	0xbdb1c7af	-0.08680665
129	0x3d553243	0.052049886
130	0x3e0ca9e3	0.13736682
131	0x3d2417d0	0.040061772
132	0xbc2cb31e	-0.010540752
133	0xbdc49713	-0.095991276
134	0xbd17295c	-0.036904678
135	0xbce632ad	-0.028100336
136	0x3ca1a89d	0.019733721
137	0x3d6300de	0.05542075
138	0x3db1953d	0.08671043
139	0xbc486b12	-0.012232559
140	0xbd58deb7	-0.052946772
141	0xbc295eec	-0.010337573
142	0x3e0cc520	0.13747072
143	0xbd301dd6	-0.042997204
144	0xbd9e9d4f	-0.07744848
145	0x3db0639f	0.08612751
146	0x3d0b5b21	0.034022454
147	0x3bcf51c5	0.0063268864
148	0x3d620136	0.055176936
149	0x3daaebe6	0.08345775
150	0x3db85c9f	0.09002041
151	0xbd44aef9	-0.04801843
152	0x3cb057b3	0.021526193
153	0xbdfd0928	-0.12355262
154	0x3de3a9de	0.11116384
155	0xbcba3838	-0.022731885
156	0xbc9a4378	-0.018831
157	0xbe0537ac	-0.13009518
158	0xbe1c1d0e	-0.15245458
159	0x3d3e2d70	0.04643005
160	0x3c1b2fe7	0.00947187
161	0x3e13507b	0.1438617
162	0x3d666738	0.05625078
163	0xbda4c818	-0.08045977
164	0x3d26de1d	0.040739167
165	0x3de3d510	0.11124623
166	0xbe0f3ea5	-0.1398874
167	0xbcda9ff4	-0.0266876
168	0x3ca566ca	0.020190615
169	0xbd2e250e	-0.042515807
170	0x3cc0d3db	0.02353852
171	0x3dda4cb0	0.10659158
172	0xbd8e8586	-0.06959061
173	0x3d710d52	0.058850594
174	0xbd758488	-0.059940845
175	0x3da1a390	0.07892525
176	0x3c97de62	0.018538658
177	0xbde80a7c	-0.11330125
178	0x3e49753a	0.19673625
179	0xbd6f86dd	-0.058478225
180	0x3c58b541	0.013226808
181	0x3de19102	0.11013986
182	0xbe02b839	-0.12765588
183	0x3db5bc26	0.08873777
184	0x3daf1abc	0.08550021
185	0xbca97e82	-0.020690206
186	0xbd0ab30c	-0.03386216
187	0x3d3e2904	0.046425834
188	0xbbf336b8	-0.0074222945
189	0x3d929747	0.0715776
190	0x3d9c4c04	0.07631686
191	0x3d2aa13b	0.041657668
192	0xbe121694	-0.14266425
193	0xbcfc9f24	-0.030837603
194	0x3d3ab4fa	0.04558275
195	0x3bc270b8	0.0059338473
196	0x3c4c0d2e	0.012454314
197	0xbd9833fb	-0.074317895
198	0xbe0292f9	-0.12751378
199	0xbe02f1f0	-0.12787604
200	0x3dac58e9	0.08415396
201	0xbdccb561	-0.09995533
202	0xbd358a5e	-0.04432141
203	0x3dccd763	0.10002019
204	0x3cc523a6	0.02406485
205	0x3ce87d44	0.028380044
206	0xbd46784d	-0.04845457
207	0xbe0094c4	-0.1255675
208	0x3de0f665	0.10984496
209	0xbcc3b608	-0.02389051
210	0x3bc5124a	0.006014143
211	0xbd8590b2	-0.06521739
212	0xbd6267f3	-0.055274915
213	0xbd8af050	-0.06784117
214	0x3e2d546c	0.16926736
215	0xbba87857	-0.0051412988
216	0xbd35a413	-0.044345926
217	0xbe00cd69	-0.12578358
218	0x3e46f9d9	0.19431247
219	0xbda88315	-0.08228127
220	0xbc5a54fa	-0.013325924
221	0xbe040ddc	-0.12895912
222	0xbd2f6f6f	-0.04283088
223	0x3c39e479	0.011345976
224	0x3dcb9563	0.09940603
225	0x3ce0e0ac	0.027450882
226	0xbd7004fd	-0.058598507
227	0xbc06c4c6	-0.008225625
228	0xbd03495f	-0.032052394
229	0xbe572b87	-0.21012698
230	0xbde46d9b	-0.11153718
231	0xbdfa678a	-0.1222678
232	0x3e09d57d	0.13460346
233	0x3d90b4d7	0.070657425
234	0x3db3d5d5	0.087810196
235	0x3c3dd098	0.011585377
236	0x3e20c7de	0.15701243
237	0x3cb554b7	0.022135122
238	0xbd8348e7	-0.064103894
239	0xbd2c22e9	-0.04202548
240	0x3d1d8cea	0.038464464
241	0xbe940170	-0.28907347
242	0x3d681523	0.056660783
243	0x3e0bc31c	0.13648647
244	0x3d4a8a29	0.049448166
245	0xbe103cdc	-0.14085716
246	0xbdc8058c	-0.09766683
247	0xbe05c32c	-0.13062733
248	0xbd2b711b	-0.041855913
249	0xbd10e0aa	-0.035370506
250	0x3daaa4bb	0.08332201
251	0x3da6fbf6	0.081535265
252	0xbdff37dc	-0.12461826
253	0x3ddd1f03	0.10796931
254	0xbd02aa28	-0.031900555
255	0xbd63b58e	-0.055593066

sequential_31/simple_rnn_55/simple_rnn_cell_111/BiasAdd/ReadVariableOp/resource:0 f4 [64]
0	0x3d5d7986	0.054070972
1	0x3d5b7b00	0.0535841
2	0xbd23d924	-0.040002003
3	0x3c78ec8f	0.015193119
4	0x3d248449	0.04016522
5	0x39d029ef	0.00039704095
6	0x3c2cb81d	0.010541943
7	0xbe12473d	-0.14284988
8	0x3c7c4d6d	0.015399319
9	0x3e0e3d74	0.1389063
10	0xbcccf7a0	-0.02502042
11	0xbda5da29	-0.080982514
12	0x3d3612f0	0.044451654
13	0x3d13498b	0.035958808
14	0x3d8cdd7e	0.06878184
15	0xbd70c176	-0.05877825
16	0xbd3e9649	-0.04653004
17	0xbdafe36c	-0.08588299
18	0x3d96aea1	0.073575266
19	0xbcd09d9d	-0.02546578
20	0xbca2e1bf	-0.019883035
21	0x3cc518b2	0.024059627
22	0x3d1940d4	0.03741534
23	0x3cad7f1d	0.021178776
24	0xbd947edf	-0.07250761
25	0xbdecd910	-0.11564839
26	0x3d4af836	0.04955312
27	0x3da3253f	0.079660885
28	0xbd84167a	-0.064495996
29	0xbc95701d	-0.018241936
30	0xbd206247	-0.039156225
31	0xbca7621d	-0.020432526
32	0xbd3250c0	-0.04353404
33	0xbe082596	-0.13295588
34	0xbce4729b	-0.02788668
35	0x3d021016	0.031753622
36	0x3d7f09bb	0.06226514
37	0xbc211ce7	-0.009833551
38	0xbc8be2af	-0.017075865
39	0xbc96aa68	-0.018391803
40	0xbdb11657	-0.08646839
41	0xbdcf47aa	-0.10121091
42	0xbc0f8ce1	-0.0087616155
43	0x3c92a045	0.017898688
44	0xbd782c87	-0.06058934
45	0xbb97f68b	-0.0046375445
46	0x3e0bfdb1	0.13670994
47	0xbca2141f	-0.019784985
48	0x3d302acb	0.04300956
49	0x3bea7541	0.007155091
50	0xbd822686	-0.06355004
51	0x3d19bf55	0.037535984
52	0x3d0816cb	0.033224862
53	0xbdb08a52	-0.086201325
54	0x3cce516a	0.025185306
55	0xbd434e68	-0.047682196
56	0x3d952cbe	0.072839245
57	0x3d4f2cf3	0.050579976
58	0xbb353483	-0.0027649708
59	0x38ef02e2	0.00011396945
60	0x3d741543	0.05959059
61	0x3d049c9e	0.032375924
62	0xbd020621	-0.031744126
63	0xbce51624	-0.027964659

sequential_31/simple_rnn_54/simple_rnn_cell_110/MatMul_1/ReadVariableOp/resource:0 f4 [128, 128]
0	0xbd94da82	-0.072682396
1	0xbd97e693	-0.074170254
2	0xbcbe91e9	-0.023262935
3	0x3d2d3d79	0.042294953
4	0x3e080822	0.13284352
5	0xbddff040	-0.10934496
6	0x3be0e886	0.0068636565
7	0x3db0ce47	0.08633094
8	0xbd759938	-0.059960574
9	0xbc96a1f5	-0.018387774
10	0x3e261fcf	0.16223072
11	0x3c4b33b7	0.0124024665
12	0x3db1c1a4	0.08679512
13	0x3c1fc78f	0.009752168
14	0x3d1e6fac	0.038680717
15	0xbe5f6122	-0.21814397
16	0xbc3dfb0d	-0.0115955
17	0xbc4d409f	-0.012527614
18	0xbdd1d761	-0.102461584
19	0xbd5c6c9c	-0.053814515
20	0x3d60aee9	0.054854307
21	0xbd4f5511	-0.050618235
22	0xbc7480f6	-0.014923325
23	0xbd8de53c	-0.069284886
24	0x3dccfbbd	0.10008953
25	0xbd56cdda	-0.05244241
26	0xbd4fb441	-0.050709013
27	0xbd31d4b1	-0.04341573
28	0xbb4c22b0	-0.0031148605
29	0xbdb516a1	-0.08842207
30	0x3db971b2	0.09054889
31	0x3db714c1	0.08939505
32	0x3dffde8e	0.12493621
33	0xbe06a786	-0.13149843
34	0x3deb49d1	0.11488689
35	0xbc14b9d4	-0.009077508
36	0x3cd0b499	0.02547674
37	0x3c2cbdad	0.010543269
38	0xbd7eaca7	-0.062176373
39	0xbd70136b	-0.05861227
40	0xbd838997	-0.064227276
41	0x3cd471e1	0.025933208
42	0xbddf7da4	-0.10912636
43	0x3d628752	0.055304833
44	0x3c05987c	0.008154031
45	0x3b820aa6	0.0039685545
46	0x3e7e283a	0.24820033
47	0xbcf28720	-0.029605448
48	0x3d96e3e6	0.07367687
49	0xbd00ad66	-0.031415366
50	0x3d92097d	0.07130716
51	0xbdd904f1	-0.105966456
52	0xbbee83e8	-0.007278908
53	0x3c2db79a	0.010602856
54	0x3db85f0c	0.09002504
55	0x3c16d06f	0.009204968
56	0x3c7b6eb4	0.015346218
57	0xbd918df4	-0.071071535
58	0x3d9a468d	0.07532988
59	0x3d32be35	0.043638427
60	0x3d3c397f	0.04595327
61	0x3c305648	0.010762759
62	0x3d864894	0.06556812
63	0x3d9652c6	0.073400065
64	0x3e346304	0.17615896
65	0x3d2ed59f	0.042684194
66	0x3d224874	0.039619878
67	0xbd96dc33	-0.073662184
68	0xbd0aea02	-0.033914573
69	0x3d94038a	0.072272375
70	0x3d1a6455	0.03769334
71	0xbdb28fea	-0.08718856
72	0xbdcca988	-0.09993273
73	0xbcd7a499	-0.026323603
74	0x3dabb5f0	0.08384311
75	0xbd02a4d3	-0.03189547
76	0xbc961c8d	-0.018324161
77	0x3c4e4ede	0.012592046
78	0xbe19e311	-0.15028025
79	0x3d80654c	0.06269321
80	0x3dbc083d	0.09181259
81	0xbb831636	-0.0040004505
82	0x3c8b776e	0.017024722
83	0x3cc1b749	0.023646967
84	0x3d8bc4f1	0.06824673
85	0x3dbc9e1c	0.092098445
86	0x3c80ef48	0.015739098
87	0x3b8ac532	0.0042349333
88	0x3e151512	0.14558819
89	0x3b0e248c	0.0021689264
90	0xbd122a6b	-0.035684984
91	0xbd7ae7f8	-0.06125638
92	0x3c8bb311	0.017053159
93	0xbcfff43e	-0.031244393
94	0xbd976ae1	-0.073934324
95	0xbdda8f9c	-0.106719226
96	0x3deed342	0.11661388
97	0xbd0dc5ef	-0.034612592
98	0xbdc483e2	-0.09595467
99	0xbbc14593	-0.0058981865
100	0xbdf01cb6	-0.11724226
101	0xbd763581	-0.06010962
102	0xbda7182c	-0.08158907
103	0xbd14c370	-0.036319196
104	0xbd27edad	-0.04099815
105	0x3d5f0bf1	0.054454748
106	0xbdd93419	-0.1060564
107	0xbd92f845	-0.0717626
108	0xbe1675f7	-0.14693438
109	0x3d1c6348	0.03818062
110	0xbda16aac	-0.07881674
111	0x3e1cd2bd	0.15314765
112	0x3d42b5ca	0.04753665
113	0xbc4cfa0f	-0.0125107905
114	0x3d431254	0.0476249
115	0x3c89cd39	0.01682149
116	0xbcc24a11	-0.023716958
117	0xbc6cae47	-0.014445848
118	0xbc620daa	-0.013797203
119	0xbc608834	-0.013704348
120	0x3cf09fca	0.029373068
121	0x3d0ddcce	0.034634404
122	0xbd328430	-0.043583095
123	0xbd1380e2	-0.036011584
124	0x3c232838	0.009958319
125	0x3c40c9d4	0.01176687
126	0x3c8b44c9	0.017000573
127	0xbbcbf6e0	-0.006224498
128	0xbc90a071	-0.01765463
129	0xbe4357bf	-0.19076441
130	0xbd1cca32	-0.038278766
131	0xbd9d8604	-0.07691577
132	0xbbc1f187	-0.005918685
133	0xbd25f0a6	-0.040512703
134	0x3d205541	0.039143804
135	0x3d9c1b8b	0.07622441
136	0x3a764f36	0.00093959586
137	0xbd02eb93	-0.031962942
138	0x3d15ba43	0.036554586
139	0x3cb6a8be	0.02229726
140	0xbc37d89f	-0.01122108
141	0xbd432684	-0.047644153
142	0xbd3c98e7	-0.046044257
143	0x3d7863ba	0.06064198
144	0x3cf2e9bf	0.029652474
145	0x3c14eb3a	0.0090892855
146	0xbda20601	-0.079113014
147	0xbd41e891	-0.047340933
148	0x3d5ef0b5	0.054428775
149	0xbde9592e	-0.11393963
150	0xbdde57c2	-0.10856582
151	0xbcd50dc7	-0.026007546
152	0x3e003eab	0.12523906
153	0xbce0fede	-0.02746528
154	0x3d9b4bae	0.07582794
155	0x3dad8985	0.084734954
156	0xbc067220	-0.00820592
157	0x3ba73f17	0.0051039564
158	0xbba21a78	-0.004947003
159	0x3d61239e	0.054965608
160	0xbb808480	-0.003922045
161	0xbd8eefc8	-0.069793284
162	0xbdf33d8b	-0.11876973
163	0xbdbef981	-0.09324933
164	0x3c90dda7	0.017683817
165	0x3d5906bd	0.05298494
166	0xbda10dce	-0.07863961
167	0x3df33d61	0.118769415
168	0x3ddb2028	0.10699493
169	0x3cff64f5	0.03117607
170	0xbe0425be	-0.12905023
171	0x3b4f60f7	0.003164349
172	0xbdcf3c2b	-0.10118898
173	0xbbce2d85	-0.0062920474
174	0xbcf58cb9	-0.029974328
175	0x3d68c3d8	0.056827396
176	0xbdb6907e	-0.089142784
177	0x3df6c0b5	0.12048475
178	0x3cb3334b	0.021875044
179	0x3d665df3	0.05624194
180	0x3e34e6d9	0.17666186
181	0x3c590a94	0.013247151
182	0xbe071f0e	-0.1319544
183	0x3e21068d	0.15725155
184	0xbd002c70	-0.03129238
185	0xbcb09617	-0.021555943
186	0xbe1833bd	-0.14863487
187	0xbddc8916	-0.107683346
188	0xbd5e3b64	-0.054255858
189	0xbdd00242	-0.10156681
190	0xbc420372	-0.011841642
191	0x3da1d572	0.079020396
192	0xbd917431	-0.0710224
193	0x3c904b58	0.017614052
194	0x3dbc39d9	0.09190721
195	0x3d41796a	0.04723493
196	0xbc70127e	-0.014652846
197	0x3ca51eeb	0.020156344
198	0xbd4b4d4e	-0.04963427
199	0x3bf971fb	0.0076124645
200	0x3c3a6ea0	0.011378914
201	0x3d63dcb0	0.055630386
202	0xbda6feac	-0.081540436
203	0x3c6b0ec8	0.014346786
204	0x3ca66820	0.020313323
205	0x3d95b324	0.07309559
206	0x3e0286d9	0.12746753
207	0x3dabc459	0.0838706
208	0xbdddb502	-0.1082554
209	0x3cef8236	0.029236894
210	0x3cd40c9f	0.025884924
211	0x3c10a081	0.00882733
212	0x3c63cf1f	0.013904362
213	0x3ce4ce04	0.027930267
214	0xbdbcfdfe	-0.09228133
215	0xbd53961f	-0.05165684
216	0x3d693639	0.056936476
217	0x3cd753d7	0.026285095
218	0x3e0a23f1	0.13490273
219	0xbccba2aa	-0.024857838
220	0x3ca304e1	0.019899787
221	0x3cc92ae1	0.024556579
222	0x3c21f31e	0.009884624
223	0x3cb69ce8	0.022291616
224	0x3ab44b39	0.0013755328
225	0x3db26d15	0.08712212
226	0xbd67ee2e	-0.05662363
227	0x3dae3ad0	0.08507311
228	0xbcf7a7bd	-0.030231351
229	0xbdef730f	-0.116918676
230	0xbb4c862c	-0.0031207902
231	0x3dd21b2a	0.102590874
232	0xbcf161a3	-0.029465502
233	0x3cfa9e54	0.030593075
234	0xbc306d23	-0.010768208
235	0x3cca79a0	0.024716198
236	0xbd2b9c02	-0.041896828
237	0x3d44920e	0.04799085
238	0x3d4974cd	0.049183656
239	0x3cadeff7	0.021232588
240	0xbd49b35f	-0.049243327
241	0xbd61bb66	-0.055110358
242	0x3e06a62e	0.1314933
243	0xbc79f496	-0.015256068
244	0xbdb35cfb	-0.08757969
245	0xbd63fe71	-0.055662576
246	0xbdc0ed89	-0.09420306
247	0x3dc0b7f4	0.09410086
248	0xbb9faf65	-0.0048732036
249	0x3d442561	0.04788721
250	0xbdb0458b	-0.08607014
251	0x3e04bce4	0.12962681
252	0xbd4216fb	-0.047385197
253	0xbd5f16e8	-0.054465204
254	0x3c7a01ca	0.015259216
255	0x39e68212	0.00043965928

sequential_31/simple_rnn_54/simple_rnn_cell_110/MatMul/ReadVariableOp/resource:0 f4 [14, 128]
0	0xbe2620f7	-0.16223513
1	0xbdc50421	-0.09619928
2	0x3e6829a3	0.22672133
3	0xbe1a219c	-0.15051883
4	0x3e295af6	0.16538605
5	0xbd7434fe	-0.05962085
6	0xbe17189c	-0.14755481
7	0xbd228935	-0.039681632
8	0xbd451db4	-0.04812403
9	0xbe897854	-0.26849616
10	0xbdda9344	-0.1067262
11	0xbca8c467	-0.020601464
12	0xbd5c74ae	-0.053822212
13	0xbdf263d2	-0.118354455
14	0x3c9acb0f	0.018895654
15	0xbcb564eb	-0.022142848
16	0xbdfcdf1d	-0.12347243
17	0x3e612c50	0.2198956
18	0xbd196d4e	-0.037457757
19	0xbe5a2a28	-0.21305144
20	0xbe3d1453	-0.18464784
21	0x3dc74da0	0.09731603
22	0xbd106ae1	-0.035258178
23	0xbe48f167	-0.19623338
24	0x3d775dd6	0.060392223
25	0xbd256cbb	-0.040386897
26	0xbe8608e0	-0.26178646
27	0x3e970eea	0.29503566
28	0x3d6a3e58	0.057188362
29	0xbe271f72	-0.16320589
30	0x3b60e363	0.003431522
31	0x3e782b03	0.24235158
32	0x3db6490d	0.08900652
33	0x3e39ffa2	0.18163922
34	0xbe2aa0bd	-0.1666288
35	0xbe4ea76c	-0.20181054
36	0x3e4c57ff	0.19955443
37	0x3e39031c	0.18067592
38	0xbd9748c4	-0.07386926
39	0x3d6146b6	0.054999076
40	0x3e302de3	0.17205004
41	0x3daf4df4	0.0855979
42	0x3da01602	0.07816698
43	0xbe6bec41	-0.23039342
44	0xbe7a0c3b	-0.24418728
45	0x3cf381fe	0.029725071
46	0xbeb37b3c	-0.35054958
47	0xbe41227e	-0.18860814
48	0x3e85bfbb	0.2612284
49	0x3d82c46e	0.06385122
50	0x3e3d2a1f	0.18473099
51	0xbd3f4713	-0.04669864
52	0x3bf2239b	0.0073894984
53	0x3e431c9b	0.19053881
54	0x3dcece11	0.10097898
55	0xbb523be0	-0.0032079145
56	0xbe1e7232	-0.1547325
57	0x3e0b3b5e	0.13596866
58	0x3e75ff94	0.24023277
59	0xbe6c03d5	-0.23048337
60	0x3d3d869f	0.046270963
61	0xbe287a1f	-0.16452836
62	0x3e81bb86	0.25338382
63	0xbe67b725	-0.22628458
64	0xbabce954	-0.0014412799
65	0x3e8412a2	0.25795466
66	0x3d46988c	0.048485324
67	0xbe19da56	-0.15024695
68	0xbe835430	-0.25650167
69	0xbe7a291f	-0.24429749
70	0x3e3703b9	0.17872514
71	0xbd337546	-0.043813013
72	0xbde17ac4	-0.11009744
73	0xbe4f792b	-0.20261066
74	0x3dfb3787	0.122664504
75	0x3d8162be	0.06317662
76	0xbe08b010	-0.13348413
77	0xbe0a89f7	-0.13529192
78	0x3d224e53	0.039625477
79	0x3d701e97	0.058622923
80	0x3e83c84e	0.25738758
81	0xbd5e9a0c	-0.05434613
82	0xbe1448aa	-0.14480844
83	0x3e0e0040	0.13867283
84	0x3c9c9874	0.019115664
85	0xbc8f6a94	-0.017506875
86	0x3e58b198	0.21161497
87	0x3dce189c	0.100632876
88	0xbe79831f	-0.24366425
89	0xbdf2a750	-0.118483186
90	0xbe6f6daa	-0.23381677
91	0xbbd35ec9	-0.0064505083
92	0x3d921efe	0.071348175
93	0xbcea9570	-0.02863571
94	0x3e09c2ff	0.13453291
95	0xbe72ce3f	-0.23711489
96	0x3e2b1615	0.16707642
97	0xbe6aaf46	-0.22918424
98	0x3dbfbafb	0.093618356
99	0x3cdac217	0.026703877
100	0xbcb00318	-0.02148585
101	0x3c9fa641	0.019488456
102	0x3d1960e0	0.037445903
103	0xbccb6733	-0.024829483
104	0xbe538689	-0.2065679
105	0x3e3ad696	0.1824592
106	0xbe2124dd	-0.15736718
107	0x3e49278d	0.19643994
108	0x3dea5592	0.114421025
109	0x3e019274	0.12653524
110	0x3de135a3	0.109965585
111	0x3d6c87bd	0.057746638
112	0xbd783938	-0.060601443
113	0xbe188693	-0.14895086
114	0xbd16a92b	-0.036782425
115	0x3e013563	0.12618022
116	0x3ea5aafc	0.32357013
117	0xbe83af89	-0.2571986
118	0xbd65dcd8	-0.056118816
119	0x3e7a8ac8	0.24467003
120	0xbd2bf629	-0.041982803
121	0x3cc8f472	0.024530623
122	0xbd213c7b	-0.03936432
123	0xbaef1185	-0.0018239474
124	0xbe773625	-0.24141748
125	0xbdb26a3d	-0.087116696
126	0xbb27d6fe	-0.0025610323
127	0x3d42c264	0.047548667
128	0x3ce0a0e6	0.027420472
129	0x3e064462	0.13112023
130	0x3dbf72df	0.09348082
131	0x3ca2b805	0.019863138
132	0xbdee5b68	-0.11638528
133	0xbe77dc5a	-0.24205151
134	0x3c9d37fe	0.019191738
135	0xbe2d8f00	-0.16949081
136	0x3e11ca8d	0.14237423
137	0xbd08e50a	-0.033421554
138	0xbd07c95b	-0.033151012
139	0xbe1c34bd	-0.15254493
140	0x3e779c36	0.24180683
141	0x3de1b16e	0.1102017
142	0x3dff7ba0	0.124747515
143	0x3d55c5d5	0.05219062
144	0xbe15ab5a	-0.14616147
145	0x3e9dac5e	0.30795568
146	0xbe71cf79	-0.23614301
147	0x3d4a2163	0.049348246
148	0xbd4eb916	-0.05046948
149	0xbcdf1f7a	-0.027236689
150	0x3d9a97c8	0.07548481
151	0x3e6ef281	0.23334695
152	0xbd95ee42	-0.07320835
153	0x3cf7053f	0.030153869
154	0xbd4fee73	-0.050764512
155	0xbe6d8c98	-0.23198164
156	0xbdc97689	-0.09837062
157	0x3da21c16	0.07915513
158	0x3ded8262	0.11597134
159	0xbd1a8568	-0.037724882
160	0xbde26717	-0.11054819
161	0x3cd8a3c9	0.026445286
162	0xbe207e9c	-0.15673298
163	0xbe334ddb	-0.17510168
164	0xbc81bd2b	-0.015837273
165	0xbd22ea48	-0.03977421
166	0x3d00bb11	0.0314284
167	0xbd3f7af0	-0.0467481
168	0x3ce7dd82	0.028303865
169	0x3d8bddf0	0.068294406
170	0xbe7697a3	-0.24081282
171	0x3d737786	0.05944016
172	0xbe283ccd	-0.16429444
173	0x3e6e8a5a	0.23294964
174	0x3e12aacd	0.14322968
175	0x3d527da3	0.051389348
176	0x3e2f985d	0.17147966
177	0x3d36a279	0.04458854
178	0x3dbf0337	0.09326785
179	0xbe1c1d87	-0.15245639
180	0xbe376ee9	-0.17913403
181	0xbe1da97f	-0.15396689
182	0xbdce1652	-0.10062851
183	0x3c238b50	0.009981945
184	0xbe8e323c	-0.277727
185	0xbcf9b29c	-0.030480675
186	0xbdc74448	-0.097298205
187	0x3d8859cf	0.06657755
188	0xbea3cf37	-0.3199403
189	0xbd084eaf	-0.033278164
190	0x3e33f22e	0.17572853
191	0xbe388989	-0.18021215
192	0xbc650ffc	-0.013980862
193	0x3e40044a	0.18751636
194	0xbe44d3f7	-0.19221483
195	0xbda22b54	-0.079184204
196	0x3e600811	0.21878077
197	0xbe08d191	-0.13361193
198	0xbdcac9cb	-0.0990177
199	0x3d0ac785	0.033881683
200	0x3c15fc2d	0.009154362
201	0x3dea1cf8	0.114313066
202	0x3de0b0ac	0.109711975
203	0x3dca989f	0.098923914
204	0xbe24b5e0	-0.16085005
205	0x3c7c4c8c	0.01539911
206	0xbc963575	-0.018336037
207	0x3e537eba	0.20653811
208	0x3e8bcc28	0.27304196
209	0x3cb78452	0.022401962
210	0xbe24af4e	-0.16082498
211	0x3e64915e	0.22321078
212	0xbe2b8dc3	-0.16753297
213	0xbd834452	-0.064095154
214	0x3e3d027e	0.18457982
215	0x3cbd2a2b	0.023091396
216	0x3e70a441	0.23500158
217	0xbe65f5d4	-0.22457057
218	0x3e3bb146	0.18329343
219	0x3e8a0eab	0.26964316
220	0x3ea7ab3a	0.32747823
221	0xbd323016	-0.04350289
222	0x3e2ca779	0.16860761
223	0x3e27741a	0.16352883
224	0xbe89e277	-0.2693059
225	0xbc150755	-0.009095986
226	0x3d09e6b0	0.033667266
227	0xbd61a9ba	-0.055093504
228	0x3e1ceeff	0.15325545
229	0xbe84afb7	-0.2591531
230	0xbda7f73e	-0.082014546
231	0xbde79567	-0.11307793
232	0x3c99abd4	0.018758692
233	0x3d69b340	0.05705571
234	0xbe1dc42b	-0.15406863
235	0xbdb7af30	-0.08968961
236	0x3e2fc072	0.17163256
237	0xbe84a9ea	-0.25910884
238	0x3dc0ecaa	0.0942014
239	0x3d8e369c	0.0694401
240	0xbde6d239	-0.112705655
241	0xbc97411f	-0.01846367
242	0xbdaffd9a	-0.085932925
243	0xbe0e00b0	-0.1386745
244	0xbc6258f6	-0.013815155
245	0xbe7c7a97	-0.2465614
246	0xbe343ab4	-0.17600518
247	0x3e40b7b1	0.18820073
248	0x3d9aa769	0.07551462
249	0xbe00a0e8	-0.12561381
250	0x3d988846	0.07447867
251	0x3dfc76c1	0.12327338
252	0x3dee97f5	0.11650077
253	0xbd7581bc	-0.059938177
254	0xbd4390cc	-0.04774551
255	0xbda5d779	-0.08097739

sequential_31/simple_rnn_54/simple_rnn_cell_110/BiasAdd/ReadVariableOp/resource:0 f4 [128]
0	0xbca2e6f8	-0.019885525
1	0x3ca675da	0.020319868
2	0x3c4956bc	0.0122887455
3	0x3c808463	0.015688127
4	0xbbf95ea9	-0.0076101613
5	0xbc80111a	-0.015633155
6	0xbd0d341d	-0.034473527
7	0x3c4b53af	0.012410088
8	0x3cd67feb	0.026184043
9	0x3d25de89	0.04049543
10	0x3c402ed6	0.011729917
11	0xbcfec052	-0.031097565
12	0xbca12f18	-0.019675776
13	0x3c0d6cac	0.008631866
14	0x3c49736e	0.012295587
15	0x3d28aae1	0.041178588
16	0xbcc90ec9	-0.024543183
17	0x3c957200	0.018242836
18	0xbd31320b	-0.043260615
19	0xbc44ad61	-0.012004227
20	0xbb9cb3e2	-0.004782186
21	0x3b3961a8	0.0028286967
22	0x3d399317	0.04530629
23	0x3bdb3af4	0.0066903774
24	0x3ca072d1	0.019585999
25	0xbd13493c	-0.035958514
26	0xbca0598e	-0.019573953
27	0x3c9c0e5e	0.01904982
28	0xbd49302f	-0.049118217
29	0x3c8bd078	0.01706718
30	0x3d14d7ad	0.036338497
31	0xbbb57ec4	-0.0055387933
32	0xbcb76f94	-0.022392072
33	0xbc9d0ded	-0.01917168
34	0x3c0458c3	0.008077803
35	0x3b81f5d9	0.003966075
36	0x3c441f3b	0.011970337
37	0xbc59ac8d	-0.013285768
38	0x3d5125dd	0.0510615
39	0x3b1c1e24	0.0023821676
40	0xbc5acfa1	-0.013355167
41	0x3c5c4708	0.01344467
42	0x3b886b4c	0.0041631814
43	0x3cc996f3	0.024608111
44	0xbcc9e4e1	-0.02464527
45	0x3a288ebb	0.000642996
46	0xbc4401dd	-0.011963335
47	0xbca4dd32	-0.020125005
48	0x3b5e5eb4	0.003393096
49	0x3d02b089	0.03190664
50	0x3b1f82a5	0.0024339345
51	0xbc41ff0d	-0.011840594
52	0xbb4e36ad	-0.0031465695
53	0xba778df0	-0.00094434526
54	0x3bc08372	0.0058750445
55	0xbd1adc52	-0.03780777
56	0x3cf5486b	0.029941758
57	0xbc8a9b63	-0.016919797
58	0x3c00648b	0.007836471
59	0x3d3f57de	0.046714656
60	0xbc5d9c29	-0.013526001
61	0x3a676967	0.0008827657
62	0x3cbbb7f6	0.022914868
63	0x3cb9aa4e	0.022664215
64	0xbced7b1c	-0.028989367
65	0xbbd6ac64	-0.0065513123
66	0xbc10dd49	-0.008841821
67	0x3d4ea696	0.050451837
68	0x3d33ea1d	0.04392444
69	0xbc4c0a59	-0.012453639
70	0xbc8b4407	-0.017000211
71	0x3cd21bfd	0.025648111
72	0xbcfa6442	-0.030565385
73	0x3cb44dc3	0.022009736
74	0xbd325228	-0.04353538
75	0xbb9bb8c9	-0.0047522527
76	0xbb614e64	-0.0034379
77	0xbd0df1e6	-0.03465452
78	0xbc0c476b	-0.008561949
79	0x3d0b9610	0.034078658
80	0xbada9bcc	-0.0016678511
81	0x3ca022c5	0.01954783
82	0x3c5a3eb6	0.0133206155
83	0x3d301587	0.04298928
84	0x3beaaa4f	0.0071614156
85	0xbc8d5b25	-0.017255375
86	0xbc3a19d7	-0.0113587
87	0x3bd273a2	0.006422476
88	0x3cb1ff45	0.021728167
89	0x3b656d76	0.003500787
90	0x3c51dd7b	0.012809153
91	0xbc8beed9	-0.017081665
92	0xbb6d5ae7	-0.0036217512
93	0x3b72d28b	0.0037051763
94	0x3cadaff1	0.02120206
95	0xbb58b57b	-0.0033067155
96	0xbc0bc360	-0.008530468
97	0x3cafe369	0.021470742
98	0x3c023265	0.007946585
99	0xbd18b12b	-0.037278336
100	0xbcdbcab7	-0.02683006
101	0xbc931795	-0.01795558
102	0x3cbb8522	0.022890631
103	0x3d0e9e6f	0.034819063
104	0xbb912a26	-0.0044300733
105	0xbcfc5086	-0.030800115
106	0x3bc615fa	0.0060451003
107	0xbd077a51	-0.033075634
108	0x3d02423b	0.031801444
109	0xbcea901d	-0.028633172
110	0x3c4835c1	0.012219847
111	0x3a4e0e40	0.00078604
112	0xbc99402c	-0.018707357
113	0xbcd50a1c	-0.026005797
114	0x3caf02b4	0.021363594
115	0x3b0891da	0.0020838887
116	0xbd14b832	-0.036308475
117	0x3c66c196	0.01408424
118	0xbc6019ff	-0.013678073
119	0x3ce7b186	0.028282892
120	0xbc42e42a	-0.011895219
121	0xbad42ebe	-0.0016188247
122	0x3bb16c06	0.0054144887
123	0x3c7e635b	0.015526618
124	0x3ca1225e	0.019669708
125	0x3c99217b	0.018692723
126	0x3cb5e30c	0.022202991
127	0x3b34a55f	0.002756439

sequential_31/dense_31/MatMul/ReadVariableOp:0 f4 [64, 13]
0	0xbda62b5c	-0.08113739
1	0x3ea413fc	0.32046497
2	0xbe54bf2b	-0.2077605
3	0x3e984f72	0.29748112
4	0x3e47e753	0.19521837
5	0xbec59d96	-0.3859679
6	0x3e8d7ddb	0.27635083
7	0xbe530bcd	-0.2060997
8	0x3daf45a4	0.08558205
9	0xbebf7a4f	-0.37398002
10	0xbce8d75c	-0.028423004
11	0x3ec79b5b	0.38985714
12	0x3da1d6ce	0.07902299
13	0x3e969497	0.2941024
14	0xbe9ffd55	-0.31247965
15	0xbba691d4	-0.005083302
16	0xbe5ba3a4	-0.21449143
17	0xbeb2ed4b	-0.34946665
18	0xbe6c2c07	-0.2306367
19	0xbed036a4	-0.40666687
20	0x3e6cd306	0.23127374
21	0x3e6bb4e8	0.23018229
22	0xbe13bdf5	-0.14427932
23	0x3cec1d81	0.028822662
24	0x3e837918	0.25678325
25	0x3d06628b	0.03280882
26	0xbd5b4531	-0.053532783
27	0x3e230d54	0.15923053
28	0x3f3b0d24	0.73066926
29	0xbea5bdb6	-0.323713
30	0xbed26e12	-0.41099602
31	0x3ef0f579	0.4706228
32	0xbeaf16f2	-0.34197193
33	0x3d9237b2	0.07139529
34	0x3e9e6f74	0.30944407
35	0x3eed9b5b	0.4640759
36	0xbdc41ab3	-0.09575405
37	0xbeba1a1c	-0.36348045
38	0xbec19c17	-0.378144
39	0xbe5868ea	-0.21133772
40	0x3e594f22	0.21221593
41	0xbe30906c	-0.17242593
42	0x3e409f9b	0.18810885
43	0xbe844e00	-0.2584076
44	0xbe368d54	-0.1782735
45	0xbed02df2	-0.40660053
46	0x3d16ad85	0.036786575
47	0x3effa0ed	0.49927464
48	0x3e8ff337	0.28115246
49	0x3e61f155	0.22064717
50	0xbea82b8c	-0.32845724
51	0xbf0b3b49	-0.54387337
52	0x3da879e4	0.08226374
53	0x3e1490ad	0.14508314
54	0xbe1e2d9e	-0.15447089
55	0x3e04489a	0.1291832
56	0xbe068574	-0.13136846
57	0x3d77c12b	0.060486954
58	0xbe60f5d0	-0.2196877
59	0x3dad6945	0.08467344
60	0xbebfc4d5	-0.37454858
61	0x3e4381e5	0.1909252
62	0xbd0a94cb	-0.033833306
63	0xbe9e1495	-0.30875078
64	0xbe55da6b	-0.20884101
65	0x3ed69e3e	0.41917604
66	0x3e8590c6	0.26087016
67	0xbe380dd5	-0.17974027
68	0xbeaf6497	-0.3425643
69	0x3ef6b784	0.48186886
70	0x3f0b8a4f	0.5450792
71	0xbdf411c5	-0.11917452
72	0xbe475761	-0.19466926
73	0xbea4a6f3	-0.32158622
74	0xbe92c032	-0.28662258
75	0xbea95a45	-0.33076683
76	0xbe8aca26	-0.27107352
77	0xbde351f4	-0.11099616
78	0x3e8db43f	0.2767658
79	0xbd965b97	-0.07341688
80	0x3ebb72d1	0.36611035
81	0xbc844683	-0.016146904
82	0xbd2336dc	-0.03984724
83	0xbdd5b5bc	-0.10435054
84	0x3ea32b04	0.31868756
85	0x3e4a0185	0.19727142
86	0xbd89b791	-0.06724466
87	0xbec817fe	-0.39080805
88	0x3c3c0d73	0.011477816
89	0xbe0210a8	-0.12701666
90	0x3debcbd6	0.11513488
91	0xbeb0984b	-0.3449119
92	0x3e6b8084	0.22998244
93	0xbe739562	-0.23787454
94	0x3db2c695	0.08729283
95	0xbda2b4c0	-0.079446316
96	0x3eb71c6e	0.35763878
97	0xbe9cfade	-0.30660146
98	0x3e88414f	0.26612327
99	0xbe3e1dc4	-0.18566042
100	0xbe57a956	-0.2106069
101	0x3eb8e41c	0.36111534
102	0x3f13e348	0.5776868
103	0xbce598fc	-0.02802705
104	0x3deaa84c	0.11457881
105	0xbde3cb19	-0.11122722
106	0xbd447a30	-0.04796809
107	0x3e4ecf0d	0.20196171
108	0xbe91c956	-0.2847392
109	0xbee11deb	-0.43968138
110	0x3e4db78c	0.20089549
111	0xbd27b743	-0.040946256
112	0xbd130e53	-0.035902333
113	0xbd3822a3	-0.044954907
114	0xbbad7f37	-0.005294706
115	0xbecda3b2	-0.40163952
116	0xbf012906	-0.5045322
117	0xbec411ec	-0.38294923
118	0x3e007cdf	0.12547635
119	0x3d46f083	0.048569214
120	0xbcd14847	-0.02554716
121	0xbe13d135	-0.14435275
122	0x3e7c9153	0.24664812
123	0xbef982b9	-0.48732546
124	0x3dbb1823	0.09135463
125	0x3ed3424a	0.41261512
126	0x3e8cc0b0	0.2749076
127	0xbc9c4b19	-0.019078778
128	0xbec5aaca	-0.38606864
129	0x3e1b9289	0.15192617
130	0xbdff45e9	-0.12464506
131	0x3ce6a696	0.028155606
132	0xbedbb601	-0.42912295
133	0x3d8724ab	0.06598791
134	0xbe5abb09	-0.21360411
135	0xbdc39884	-0.095505744
136	0xbed9f7a0	-0.42571735
137	0x3eb2d839	0.3493059
138	0x3ddc2c01	0.107505806
139	0x3e00332d	0.12519522
140	0x3eab08b2	0.33405071
141	0x3ef9b64b	0.4877189
142	0x3eb4013a	0.35157186
143	0xbc93f512	-0.018061195
144	0xbde664a3	-0.11249664
145	0xbd61ed67	-0.055158045
146	0x3f0b1561	0.54329497
147	0xbe533cba	-0.20628634
148	0xbef331cb	-0.47498927
149	0xbdb6ff50	-0.08935416
150	0x3d5cd9be	0.053918593
151	0x3e8ee44e	0.27908558
152	0x3e871b1b	0.26387867
153	0x3d9352a3	0.07193496
154	0x3e34a687	0.1764165
155	0x3d80b048	0.06283623
156	0xbe0b48bd	-0.13601966
157	0x3e8ac2ea	0.27101833
158	0xbec08688	-0.3760264
159	0xbe32149f	-0.17390679
160	0xbccc5ba0	-0.024946034
161	0x3ebc225d	0.36744967
162	0x3dad332a	0.084570244
163	0x3e4ad87b	0.19809143
164	0xbeacf0ed	-0.33777562
165	0xbe075f01	-0.13219835
166	0x3e69bb6d	0.22825404
167	0xbe08399e	-0.13303229
168	0xbdd81a41	-0.105518825
169	0xbe37968a	-0.1792852
170	0x3eaf4f60	0.34240246
171	0xbd26cf8c	-0.040725276
172	0x3ea2f7e4	0.3182975
173	0xbe0041ad	-0.12525053
174	0x3db25996	0.087084934
175	0xbcaa56a0	-0.02079326
176	0x3e6b2414	0.22962981
177	0xbe02f6e5	-0.12789495
178	0x3e9be2de	0.30446523
179	0x3df3dbab	0.11907133
180	0xbe99f153	-0.30066928
181	0xbedc105e	-0.42981237
182	0xbe8a5557	-0.27018234
183	0x3e2e18fc	0.17001718
184	0x3e3d76ce	0.18502352
185	0xbc114f8c	-0.008869063
186	0xbec4719c	-0.38367927
187	0x3e613eb1	0.21996571
188	0xbe2a7f11	-0.16650034
189	0x3edf0847	0.43561003
190	0xbed9dfd5	-0.42553583
191	0x3c9df63d	0.019282455
192	0x3e691281	0.22760965
193	0xbf16736a	-0.5876986
194	0x3df42378	0.119208276
195	0xbe918110	-0.2841878
196	0x3e41a0e9	0.18909039
197	0xbee00456	-0.43753308
198	0x3e941ab2	0.28926617
199	0x3eb68b9a	0.35653383
200	0xbec309b7	-0.3809335
201	0x3ecf6150	0.4050393
202	0x3dd48f51	0.10378898
203	0x3eb3385a	0.3500393
204	0xbeae5381	-0.34048083
205	0x3ea0cedb	0.31407818
206	0xbf338d79	-0.70137745
207	0x3ec346d6	0.3813998
208	0x3eb17dac	0.34666193
209	0xbe2af9b7	-0.16696821
210	0x3ec55834	0.38543856
211	0xbde6fa9b	-0.11278268
212	0x3eb88b30	0.36043692
213	0xbec16964	-0.3777572
214	0x3e50c8dc	0.20389122
215	0x3d8cf0d7	0.06881874
216	0x3eeb88f0	0.46002913
217	0xbe947390	-0.28994417
218	0xbf0158bc	-0.5052602
219	0x3f17f568	0.59358835
220	0xbeb40869	-0.35162666
221	0xbf0ff48e	-0.56232536
222	0xbe4fad44	-0.2028094
223	0x3ed1e4c2	0.4099484
224	0xbe4f1465	-0.20222624
225	0xbe624662	-0.22097161
226	0xbde76e42	-0.11300327
227	0x3e4ff3ff	0.20307921
228	0x3e89c1f8	0.269058
229	0x3ea2351b	0.3168114
230	0x3daae80a	0.08345039
231	0x3e801d63	0.2502242
232	0x3de50679	0.11182875
233	0x3e8a5874	0.2702061
234	0xbefbc283	-0.49171838
235	0x3e8af4e1	0.27139953
236	0xbe78ec47	-0.24308883
237	0xbe03f110	-0.12884927
238	0xbeebcaa4	-0.4605304
239	0xbe9d44fe	-0.307167
240	0x3e80dae3	0.25166997
241	0x3ba4b6ba	0.0050266655
242	0xbda13b14	-0.078725964
243	0x3ce3a3b9	0.02778803
244	0x3e3dd8de	0.1853976
245	0x3e485b07	0.19565974
246	0xbcb6a9b2	-0.022297714
247	0x3d3103c0	0.043216467
248	0x3e79989d	0.24374624
249	0x3df55266	0.11978607
250	0x3dfd1b4d	0.12358723
251	0x3ef908ef	0.48639628
252	0x3ee01302	0.43764502
253	0xbda0e406	-0.07855992
254	0x3cefbfd6	0.02926628
255	0xbd60a7aa	-0.054847397

sequential_31/dense_31/BiasAdd/ReadVariableOp:0 f4 [13]
0	0x3d8298a4	0.0637677
1	0x3d98393f	0.07432794
2	0xbd08a1a4	-0.033357278
3	0xbcdde563	-0.02708692
4	0x3d28b70a	0.041190185
5	0x3c546d9f	0.012965589
6	0x3d98a9b8	0.07454246
7	0xbc3d2196	-0.011543652
8	0x3d11284a	0.035438813
9	0xbd458de3	-0.048231017
10	0xbdf4a348	-0.11945206
11	0xbdd88163	-0.105715536
12	0xbd8d76c6	-0.0690742
